checkpoint/mmi/dpe/pretrain/MMI_port_5_pad_5_res_6_range_0.03.pt (torch, 571003 bytes, 14 tensors)

freq f4 [5]
0	0x4038da55	2.888326
1	0x4039a3ca	2.900622
2	0x40385d69	2.8807013
3	0x403846a3	2.8793113
4	0x403673e4	2.8508234

phase_bias f4 [5]
0	0x3c441252	0.0119672585
1	0xba9c105f	-0.0011906734
2	0xbcc33169	-0.023827272
3	0x3c9a8d57	0.018866224
4	0x3d0e19a6	0.03469243

layers.0.weight f4 [256, 10]
0	0xba4ff2a1	-0.0007932578
1	0x3e0b16a9	0.13582863
2	0xbe763ad2	-0.24045876
3	0xbe70d6c5	-0.23519428
4	0xbdf909e0	-0.12160087
5	0x3dbc71bd	0.09201381
6	0x3c738f92	0.014865773
7	0x3e8156c8	0.2526152
8	0xbc3f600e	-0.011680616
9	0x3dc75c32	0.09734382
10	0xbdbcff87	-0.092284255
11	0xbdb30c32	-0.087425604
12	0xbe9d096b	-0.30671248
13	0xbe7052d5	-0.23469098
14	0xbe2790bc	-0.16363806
15	0x3cfc198f	0.030773906
16	0x3e20c4b6	0.1570004
17	0x3e54e88a	0.20791832
18	0xbe3b5916	-0.18295702
19	0xbde40bb4	-0.11135045
20	0x3d9026ad	0.07038627
21	0x3e3f3615	0.18672974
22	0xbdc0bd2f	-0.09411084
23	0x3e51a401	0.20472719
24	0xbd3bd3ea	-0.045856394
25	0x3cd722c1	0.02626169
26	0x3e8e0fdc	0.27746475
27	0xbe9900ec	-0.29883516
28	0xbe68db4d	-0.22739907
29	0xbdcd432b	-0.10022577
30	0xbe3f8825	-0.18704279
31	0x3e80f2a6	0.25185126
32	0xbddbf3f5	-0.107398905
33	0xbdfcb85d	-0.12339852
34	0xbe380374	-0.17970067
35	0xbeae8dc5	-0.34092537
36	0xbe82e8ea	-0.25568324
37	0x3e794965	0.24344404
38	0x3e19f228	0.15033782
39	0x3e174192	0.14771107
40	0x3c040f8a	0.008060345
41	0xbdbbdc0c	-0.0917283
42	0x3dc787ab	0.097426735
43	0xbe8c7ad1	-0.2743745
44	0xbe488023	-0.1958013
45	0xbe3552c7	-0.17707358
46	0x3e35af26	0.17742595
47	0x3e31b919	0.17355765
48	0xbe125b55	-0.14292653
49	0xbca080fa	-0.01959275
50	0x3e7003b3	0.23438911
51	0x3ea41d16	0.3205344
52	0x3e0baba7	0.13639699
53	0x3d7b2b02	0.061320312
54	0x3e78ebe2	0.24308732
55	0xbe6ce012	-0.23132351
56	0x3d048148	0.032349855
57	0xbe830a73	-0.2559391
58	0xbe71d5d4	-0.23616725
59	0xbe5c2bd0	-0.21501088
60	0x3e009e87	0.12560473
61	0x3dc754c1	0.097329624
62	0xbe3e152a	-0.18562761
63	0x3de1293e	0.109941944
64	0x3e0ebef1	0.13940026
65	0xbd63a984	-0.055581585
66	0x3b531503	0.003220857
67	0x3d6d40bf	0.057923075
68	0x3e37c924	0.17947823
69	0x3e96c6dd	0.29448596
70	0xbe6bd620	-0.23030901
71	0xbdfef5c2	-0.12449218
72	0x3db56f7b	0.08859154
73	0x3e40c4ab	0.18825023
74	0x3e8de1fe	0.2771148
75	0x3e912ab6	0.28352898
76	0x3d4fa0f1	0.050690595
77	0xbe9a0850	-0.30084467
78	0xbb680a20	-0.0035406426
79	0xbe922779	-0.2854574
80	0xbe99f1e0	-0.30067348
81	0x3e6f6f9f	0.23382424
82	0x3e524ce8	0.2053715
83	0xbea152ec	-0.31508577
84	0x3da9a8b5	0.082841314
85	0xbda5d437	-0.080971174
86	0xbdc0890b	-0.09401139
87	0xbe378ed1	-0.17925574
88	0x3dc6b747	0.09702926
89	0xbe7d86ae	-0.24758407
90	0xbc7449e8	-0.014910199
91	0x3b7feb60	0.0039050207
92	0x3e364935	0.17801364
93	0x3e74bcf3	0.23900203
94	0xbeba86ef	-0.3643107
95	0xbdc5421b	-0.09631749
96	0x3e992f7c	0.2991904
97	0x3e468220	0.19385576
98	0xbe783873	-0.24240284
99	0xbd94e26a	-0.072697476
100	0x3e8e3061	0.27771285
101	0x3e57ab71	0.21061493
102	0xbe33bb9b	-0.17552035
103	0xbe1d68f2	-0.15372065
104	0xbea88ec1	-0.32921413
105	0xbd618f04	-0.05506803
106	0xbe941385	-0.28921142
107	0xbe6e4e23	-0.23271994
108	0xbb34738c	-0.0027534692
109	0x3d839ea5	0.064267434
110	0xbe1acf49	-0.15118136
111	0x3e497f1b	0.19677393
112	0xbe912197	-0.2834594
113	0x3e7ab9b7	0.24484907
114	0x3deb5be9	0.1149214
115	0xbe880451	-0.26565793
116	0xbe0c2da2	-0.13689283
117	0x3d49ddfd	0.04928397
118	0x3d1083ea	0.035282053
119	0x3d9b9d11	0.075983174
120	0x3dc3a08b	0.095521055
121	0xbb9e7a06	-0.0048363237
122	0xbe1654bd	-0.14680763
123	0x3e28127f	0.16413306
124	0xbeacc329	-0.33742645
125	0xbe24d2e0	-0.16096067
126	0xbd5f0891	-0.05445153
127	0xbdf38436	-0.118904516
128	0xbdd41eba	-0.10357423
129	0xbe60bdbf	-0.21947382
130	0xbd19a9e3	-0.037515532
131	0x3d42ebd7	0.047588196
132	0xbe0aa03f	-0.13537692
133	0xbb717a0b	-0.0036846425
134	0x3d99bb25	0.07506398
135	0xbe35768c	-0.17721003
136	0xbe1a405e	-0.15063617
137	0xbe343189	-0.17597021
138	0xbd857bfb	-0.06517788
139	0x3da16fcf	0.07882654
140	0x3e906623	0.28202924
141	0x3dceaf93	0.10092082
142	0x3ea0ce3e	0.3140735
143	0xbdcd3104	-0.100191146
144	0xbe965ee4	-0.2936927
145	0xbe4d4cbc	-0.20048803
146	0x3e5968af	0.2123134
147	0xbce76d1d	-0.028250271
148	0xbe2d0d67	-0.16899644
149	0xbe80687f	-0.25079724
150	0xbea4ca8e	-0.32185787
151	0xbea75610	-0.32682848
152	0xbcd198b8	-0.025585517
153	0x3e525d17	0.20543323
154	0x3e702f93	0.23455648
155	0xbe82c15b	-0.25538144
156	0x3e7b4535	0.24538119
157	0xbe6575f5	-0.22408278
158	0xbd9aa6b0	-0.07551324
159	0xbe2d88dc	-0.16946739
160	0xbb79f2a6	-0.0038139015
161	0xbd664550	-0.056218445
162	0xbeb0f52c	-0.3456205
163	0xbea91918	-0.33026958
164	0xbe22f2b2	-0.15912893
165	0x3d062cbf	0.032757517
166	0xbdd7dab0	-0.10539758
167	0x3e39082e	0.18069527
168	0xbe631837	-0.22177206
169	0x3d4359e9	0.047693167
170	0x3e586778	0.2113322
171	0xbe015c95	-0.12632973
172	0x3e898fdb	0.26867566
173	0x3def336c	0.1167973
174	0xbe8eb811	-0.27874807
175	0x3e1524b8	0.14564788
176	0xbdadd9b7	-0.084887914
177	0xbe5c685e	-0.21524188
178	0x3e45bfa9	0.19311394
179	0xbe9b8baf	-0.30380008
180	0x3acf9ab7	0.0015838955
181	0xbdbe986a	-0.093064144
182	0x3e470b68	0.19437945
183	0x3d9e90b6	0.07742445
184	0x3dbe10dc	0.092805594
185	0x3dc20ae8	0.094747365
186	0xbdc92747	-0.09821945
187	0xbdaba831	-0.08381689
188	0xbe9cb0e6	-0.30603713
189	0x3e178fde	0.14800975
190	0x3e81dd8f	0.25364348
191	0x3e4d4be3	0.2004848
192	0xbe8e3999	-0.2777832
193	0xbd1361b7	-0.03598186
194	0xbe8d3db9	-0.27586153
195	0xbe6dfb87	-0.23240481
196	0xbe51bb7a	-0.20481673
197	0x3e25477b	0.16140549
198	0xbe255b61	-0.1614814
199	0x3d067bb2	0.03283281
200	0x3ccc3856	0.024929207
201	0x3e2d5de8	0.16930354
202	0xbe537516	-0.20650133
203	0xbe58100a	-0.21099868
204	0xbe4704d2	-0.19435433
205	0x3e734615	0.23757203
206	0xbda31f8a	-0.07965
207	0x3e8b3af3	0.27193412
208	0x3e0a92a1	0.13532497
209	0x3d740c99	0.059582327
210	0x3ba9f096	0.005186151
211	0xbd95d754	-0.07316461
212	0x3cfdbd7f	0.030974148
213	0xbdee44d3	-0.11634221
214	0x3c86eb55	0.016469637
215	0x3c93d5f8	0.018046364
216	0xbe8b8c2e	-0.27255386
217	0xbe3b434b	-0.18287389
218	0x3e7eaf74	0.24871618
219	0xbe970cc1	-0.29501918
220	0xbe224126	-0.15845165
221	0x3ebc5862	0.3678618
222	0x3df29d9f	0.1184647
223	0xbcea8396	-0.028627198
224	0xbea56e81	-0.3231087
225	0x3e48218a	0.19544044
226	0xbebdcf5c	-0.37072265
227	0xbd9e23a3	-0.07721641
228	0xbdae8c86	-0.085228965
229	0xbb7d82b4	-0.0038682641
230	0xbc463350	-0.012097195
231	0x3e606ae9	0.21915783
232	0x3c582c4a	0.013194153
233	0x3e88c43c	0.26712215
234	0x3e40e5c8	0.18837655
235	0xbe4f3d95	-0.20238335
236	0x3e0d924f	0.13825344
237	0xbe60de9f	-0.21959923
238	0xbe254ecb	-0.16143338
239	0x3d94a281	0.07257558
240	0x3e1bfa0c	0.15232104
241	0x3e5536d4	0.20821697
242	0xbe38afbb	-0.18035786
243	0xbdd864ee	-0.10566126
244	0x3e046eff	0.12932967
245	0xbeb10a48	-0.34578156
246	0x3e8a9f2e	0.2707457
247	0xbe3d25e5	-0.18471487
248	0x3d8d5d2e	0.06902538
249	0xbc5ac246	-0.013351982
250	0xbe3a0709	-0.18166746
251	0x3d60ed42	0.054913767
252	0x3e88fe61	0.26756576
253	0xbdc1bc3c	-0.09459731
254	0xbe59f847	-0.21286117
255	0xbdc4ce4d	-0.09609661

layers.0.bias f4 [256]
0	0xbe7012a2	-0.23444608
1	0xbe774c5b	-0.24150221
2	0x3e6cf062	0.23138574
3	0xbe19b4f7	-0.15010439
4	0xbd86a55d	-0.06574509
5	0x3dfead7c	0.12435433
6	0xbe6e3778	-0.23263347
7	0x3d384dc8	0.044996053
8	0x3e4bc0bf	0.19897746
9	0xbdc2ec4b	-0.095177256
10	0x3e061099	0.13092269
11	0x3c96589e	0.018352803
12	0x3e87e785	0.26543823
13	0x3d4630ed	0.048386503
14	0x3ddb2e5d	0.107022025
15	0x3da5a5c0	0.08088255
16	0xbe8809c2	-0.26569945
17	0x3ddbe9c6	0.10737948
18	0x3e54968f	0.20760559
19	0xbd446271	-0.047945444
20	0xbeac10f7	-0.33606693
21	0x3e8e3454	0.27774298
22	0xbc32ac8e	-0.010905398
23	0x3db77612	0.08958067
24	0xbc98da9c	-0.018658929
25	0x3e929f68	0.28637242
26	0x3e8593ca	0.26089317
27	0x3e0a18d7	0.13486038
28	0xbe1030b1	-0.14081074
29	0x3e59411a	0.2121624
30	0x3d9c56a2	0.076337114
31	0xbd392a15	-0.04520615
32	0xbe9558c3	-0.29169282
33	0xbe308935	-0.1723984
34	0xbeadbece	-0.33934635
35	0x3e481ea4	0.19542938
36	0x3e79679a	0.24355927
37	0x3e0feaa0	0.14054346
38	0x3bd503e0	0.006500706
39	0x3cd7ea9f	0.026356993
40	0x3e827f02	0.25487524
41	0xbe38a666	-0.18032226
42	0xbc81465e	-0.015780624
43	0xbe5b0426	-0.21388301
44	0xbdbfb732	-0.093611136
45	0x3c32284d	0.010873866
46	0x3db6a27f	0.089177124
47	0xbe2b0ab6	-0.16703305
48	0xbd9d2efd	-0.07674978
49	0xbe7fdfc5	-0.24987705
50	0xbe83abd4	-0.25717032
51	0x3b43cb5c	0.002987585
52	0xbe923d8d	-0.28562585
53	0x3d9d6725	0.07685689
54	0xbe9aac08	-0.30209374
55	0xbe80711e	-0.25086302
56	0xbdd8f9c3	-0.10594513
57	0xbe949972	-0.2902332
58	0x3e494cc1	0.19658186
59	0x3e476bd0	0.19474721
60	0xbe267f50	-0.16259503
61	0xbc4a2552	-0.012337999
62	0x3e38eb4a	0.18058506
63	0x3e17996d	0.14804621
64	0xbda6a1b1	-0.08136309
65	0xbe992cce	-0.29916996
66	0x3d863a95	0.065541424
67	0xbe9bfec9	-0.30467823
68	0xbdefeebf	-0.11715459
69	0x3cdc790b	0.026913187
70	0xbe1923ee	-0.14955112
71	0xbe22c459	-0.15895213
72	0xbe95d228	-0.292619
73	0x3d816673	0.06318369
74	0xbdd07da6	-0.101802155
75	0x3e937adc	0.28804672
76	0xbd94746f	-0.072487704
77	0x3e784a5d	0.24247117
78	0x3db2c5ed	0.087291576
79	0xbd9ee840	-0.07759142
80	0xbe15bff6	-0.14624009
81	0xbda9081d	-0.082535006
82	0xbc13ffd0	-0.009033158
83	0xbdb09c1c	-0.086235255
84	0x3bebdadc	0.007197721
85	0x3e9481f1	0.29005387
86	0x3d8cdecf	0.06878435
87	0x3ce8ddca	0.02842607
88	0x3d9f625c	0.077824324
89	0x3d06f7a3	0.03295101
90	0x3e2248ae	0.15848038
91	0x3e3a7dda	0.18212071
92	0x3e757de3	0.23973803
93	0xbea41fd0	-0.3205552
94	0x3e42627c	0.18982881
95	0xbd68dbf0	-0.056850374
96	0xbdd4757b	-0.1037397
97	0xbe60fcac	-0.21971387
98	0x3e4d25ab	0.200339
99	0x3e8f109e	0.27942365
100	0xbe7be432	-0.24598768
101	0x3d9ba887	0.076005034
102	0x3e48d6cf	0.19613193
103	0x3dcc55d3	0.09977307
104	0xbd7a27c3	-0.061073076
105	0x3dc9e8e4	0.098588735
106	0x3c46a7d4	0.012124974
107	0xbd32f152	-0.043687172
108	0xbd438b8d	-0.047740508
109	0x3e13d15f	0.14435337
110	0x3dcc06be	0.099622235
111	0x3d3be56a	0.045873083
112	0x3e10de6e	0.1414735
113	0x3df7a599	0.12092132
114	0xbde90596	-0.113780186
115	0x3b387a99	0.0028149246
116	0x3e6193cc	0.22029036
117	0x3d050a2c	0.032480404
118	0xbd41b2c5	-0.04728963
119	0x3e7618ff	0.24032973
120	0xbe6c5dc5	-0.23082645
121	0xbe29fa0c	-0.16599292
122	0xbe126231	-0.1429527
123	0x3e87caf0	0.26522017
124	0xbe809e0f	-0.2512059
125	0xbdce6cc3	-0.100793384
126	0xbeabec08	-0.33578515
127	0xbd431101	-0.047623638
128	0x3e13a7e3	0.14419512
129	0xbd7741ee	-0.06036561
130	0x3ea81ab4	0.32832873
131	0xbc87d26e	-0.016579833
132	0xbe0ea292	-0.13929203
133	0xbd329236	-0.04359647
134	0x3d71d211	0.059038226
135	0xbd3353fb	-0.043781262
136	0x3e7f1fb2	0.24914435
137	0xbe681183	-0.2266293
138	0x3d245bf4	0.040126756
139	0x3e41089f	0.18850945
140	0x3d217e4d	0.03942709
141	0x3c967676	0.018367033
142	0x3c25b1eb	0.01011322
143	0xbe1c1abc	-0.15244573
144	0xbe8061a5	-0.25074497
145	0x3c16037d	0.009156105
146	0xbda8abf8	-0.082359254
147	0x3e836c50	0.25668573
148	0x3dedef94	0.116179615
149	0x3df90935	0.12159959
150	0xbe387395	-0.18012841
151	0xbe4d674c	-0.20058936
152	0xbe6e2721	-0.23257114
153	0x3df25e55	0.11834399
154	0xbe850d02	-0.25986487
155	0xbe23e8a2	-0.16006711
156	0xbdb5d1ee	-0.088779315
157	0xbe8c291d	-0.27375117
158	0xbe069325	-0.13142069
159	0xbe258619	-0.16164435
160	0xbdf4fb7a	-0.11962028
161	0x3e6c70eb	0.2308995
162	0xbe04c1ae	-0.12964508
163	0x3dc7f69a	0.097638324
164	0xbc8c3903	-0.017117029
165	0xbdb85f3e	-0.09002541
166	0xbe036246	-0.12830457
167	0xbe2fa808	-0.17153943
168	0xbe6049fc	-0.21903223
169	0x3e284741	0.16433431
170	0xbda139b5	-0.07872335
171	0xbeaf77b5	-0.34271017
172	0x3e6dcc1f	0.23222397
173	0xbd84cbd5	-0.064841904
174	0xbd651c66	-0.055935286
175	0xbe2d049b	-0.16896288
176	0xbe950718	-0.29106975
177	0xbe9421b8	-0.28931975
178	0x3ea540ce	0.32276005
179	0x3e2909d6	0.16507658
180	0xbda1679f	-0.07881092
181	0xbe9037c3	-0.28167543
182	0xbe053933	-0.13010101
183	0xbea3fd5b	-0.32029232
184	0x3d518d9e	0.051160447
185	0xbe150ff2	-0.14556864
186	0xbdeabdd8	-0.11461991
187	0xbc931172	-0.017952655
188	0x3e3d2285	0.184702
189	0x3e21cb38	0.15800178
190	0x3dcad434	0.09903756
191	0xbdc0a638	-0.09406704
192	0xbde25796	-0.11051862
193	0x3c39f206	0.011349207
194	0xbe871605	-0.26383987
195	0x3e7c427f	0.24634741
196	0xbcb5af73	-0.022178387
197	0x3d818b56	0.06325404
198	0xbe542128	-0.20715773
199	0xbd21c551	-0.039494816
200	0x3d865aaa	0.065602615
201	0xbe847e00	-0.2587738
202	0x3daaf09e	0.08346675
203	0xbe839df1	-0.25706437
204	0x3d79b897	0.060967054
205	0xbdc1a295	-0.09454838
206	0x3e673329	0.2257811
207	0x3ea53ba3	0.32272062
208	0x3d9ca946	0.07649474
209	0xbd84f081	-0.06491185
210	0xbe4616e4	-0.1934467
211	0x3e1e330a	0.15449157
212	0xbe353567	-0.17696153
213	0x3d9065a7	0.07050639
214	0xbe0cb0a1	-0.13739254
215	0x3e785142	0.24249747
216	0x3e1c0aeb	0.1523854
217	0x3d9886f3	0.074476145
218	0xbd8e04c2	-0.06934501
219	0x3e53d300	0.20685959
220	0xbe38b067	-0.18036042
221	0x3e7615be	0.24031731
222	0xbe046cf8	-0.12932193
223	0x3d7b876d	0.06140845
224	0xbdbf6ce7	-0.09346943
225	0xbe11bcac	-0.14232129
226	0xbdb51d71	-0.08843506
227	0x3e371784	0.17880064
228	0xbcf77a42	-0.030209664
229	0xbcec0b2d	-0.028813923
230	0x3db48bc9	0.088157244
231	0x3d6500d5	0.055908997
232	0xbe916d77	-0.28403828
233	0xbea821aa	-0.32838184
234	0xbe34f552	-0.17671707
235	0x3d9f63bd	0.077826954
236	0xbe7b6f28	-0.24554121
237	0x3d9d7073	0.076874636
238	0x3e805666	0.25065917
239	0xbdff843d	-0.12476394
240	0xbdc37298	-0.095433414
241	0xbe0ca421	-0.13734485
242	0x3ddf0bdb	0.10890933
243	0xbd95dd33	-0.07317581
244	0x3cb1949a	0.021677304
245	0x3e004227	0.12525235
246	0x3d3e92bd	0.04652666
247	0xbe07a702	-0.13247302
248	0x3d9869eb	0.07442077
249	0xbdbd6fa5	-0.0924981
250	0xbd79a812	-0.0609513
251	0x3dd70002	0.10498048
252	0xbddcfdf8	-0.10790628
253	0x3e91c57d	0.28470984
254	0xbdb0f018	-0.08639544
255	0xbc16aa43	-0.009195867

layers.2.weight f4 [256, 256]
0	0xbdadf00a	-0.084930494
1	0xbd76abe8	-0.060222536
2	0x3cd35a57	0.025799913
3	0xbc32d249	-0.010914394
4	0xbd50d26a	-0.050981916
5	0x3d246db3	0.04014368
6	0xbd152198	-0.03640899
7	0x3d4517a5	0.048118252
8	0x3d94c5a9	0.07264263
9	0xbc749190	-0.014927283
10	0xbcdf061f	-0.027224598
11	0x3bae12aa	0.0053122835
12	0x3dbefad1	0.09325183
13	0xbcd5847c	-0.02606415
14	0xbad1913d	-0.0015988719
15	0x3d2bf985	0.041986007
16	0x3c6c7034	0.014431048
17	0x3d3d419f	0.04620516
18	0x3d68fbd0	0.056880772
19	0x3c1b48a6	0.00947777
20	0xbd48d924	-0.049035206
21	0x3d68d8d0	0.056847394
22	0xbcec4c00	-0.028844833
23	0xba915685	-0.0011088407
24	0x3b6b187d	0.003587275
25	0x3cd9f228	0.026604727
26	0xbd6144f8	-0.054997414
27	0x3b03b03b	0.0020094055
28	0x3d27eab0	0.0409953
29	0xbcb33045	-0.021873603
30	0xbd1f9723	-0.038962495
31	0x3d57821d	0.05261432
32	0x3bf78500	0.0075536966
33	0xbd73b83b	-0.059501868
34	0xbd86339b	-0.06552812
35	0x3d321b23	0.04348291
36	0xbc7a7667	-0.015287018
37	0xbc005152	-0.007831888
38	0x3b19400c	0.0023384122
39	0x3bb1b70b	0.0054234318
40	0x3d1cc2df	0.03827178
41	0xbd98e8ef	-0.074663036
42	0x3d105ba4	0.035243645
43	0x3cb8227e	0.022477385
44	0x3c48b72c	0.012250703
45	0x3d355671	0.04427189
46	0xbc3dbcee	-0.011580689
47	0xbcb526c8	-0.022113219
48	0x3ccfa25b	0.025345972
49	0xbe21a660	-0.15786123
50	0x3d2ded4d	0.042462636
51	0xbd6565ff	-0.056005474
52	0xbd227f23	-0.03967203
53	0xbce24d77	-0.027624829
54	0xbd92706a	-0.071503475
55	0xbd9324ba	-0.071847394
56	0xbdb3b19e	-0.08774112
57	0xbdeabe1d	-0.114620425
58	0xbc55ab6c	-0.013041358
59	0xbd442e09	-0.047895465
60	0x3d465e0c	0.048429534
61	0xbca03e11	-0.019560846
62	0x3dadd65e	0.08488153
63	0xbd5f1b10	-0.05446917
64	0x3cc49564	0.023997016
65	0xbc8e29f7	-0.017353995
66	0x3cb30e82	0.021857504
67	0xbc723675	-0.014783491
68	0x3b6e8428	0.003639469
69	0x3d9868c3	0.07441857
70	0xbbeed3f8	-0.0072884522
71	0x3cc2ac4b	0.023763796
72	0x3c03921b	0.00803044
73	0xbd820403	-0.063484214
74	0x3cf18f6e	0.029487338
75	0x3d88d232	0.066807166
76	0x3d80066d	0.062512256
77	0x3d3edd55	0.046597797
78	0xbcb802c6	-0.02246226
79	0x3cb4b19d	0.022057349
80	0xbc658c52	-0.014010506
81	0xbd6e8084	-0.05822803
82	0x3cf7f36d	0.030267442
83	0x3c835616	0.01603226
84	0x3d7f9f23	0.062407624
85	0x3d84af39	0.064787336
86	0x3d03dc22	0.032192357
87	0x3d85336f	0.06503951
88	0x3ca818c1	0.020519616
89	0xbccd92e8	-0.025094464
90	0x3c17429e	0.009232191
91	0xbd1e0338	-0.03857729
92	0x3c1bd77e	0.009511827
93	0x3c411711	0.011785285
94	0x3a2f248c	0.0006681166
95	0xbd6030b1	-0.054733936
96	0xbc84783c	-0.016170613
97	0xbcea2c4b	-0.028585574
98	0xbba46acf	-0.0050176154
99	0x3d502087	0.05081227
100	0xbd94a749	-0.072584696
101	0x3d6c6f46	0.057723306
102	0xbc28c6a7	-0.010301269
103	0xbced5a3e	-0.028973695
104	0x3d2473fd	0.040149678
105	0xbc8e9215	-0.017403642
106	0x3d1909b5	0.037362773
107	0xbd3cff02	-0.046141632
108	0x3c665f6c	0.014060836
109	0xbccc084d	-0.024906302
110	0xbd3b9c15	-0.04580315
111	0x3d879219	0.06619663
112	0x3ceb6864	0.0287363
113	0x3d05983b	0.03261588
114	0x3d24b35a	0.040210105
115	0xbc962ba2	-0.018331353
116	0x3e3bc1cd	0.18335648
117	0x3c6ac50e	0.014329208
118	0xbd12c99e	-0.03583681
119	0xbd28bd63	-0.04119624
120	0x3d134686	0.03595593
121	0x3baa4a60	0.0051968545
122	0x3d4fa558	0.050694793
123	0x3cda6100	0.026657581
124	0xbd685090	-0.056717455
125	0x3c142ad5	0.009043415
126	0xbd2ed46e	-0.042683057
127	0x3b107b5b	0.0022046182
128	0x3d89d70a	0.067304686
129	0xbccdd025	-0.025123665
130	0x3dba5d2f	0.090998046
131	0xbd17275c	-0.03690277
132	0xbd252bf7	-0.04032513
133	0x3c425326	0.011860644
134	0xbc09aa79	-0.00840246
135	0xbcaf4a4e	-0.021397736
136	0x3d3c0026	0.04589858
137	0xbd52e7e7	-0.05149069
138	0x3d3cdef7	0.046111073
139	0x3d4345c5	0.04767396
140	0x3cbbc0af	0.022919027
141	0x3a9745fe	0.0011541245
142	0x3c4b68cb	0.012415121
143	0xbd757cd1	-0.059933487
144	0x3cfeef47	0.031119956
145	0xbd3ad9c1	-0.045617823
146	0xbc93beec	-0.018035375
147	0xbd9e347c	-0.07724854
148	0x3cbba69c	0.022906594
149	0x3ce41033	0.027839756
150	0x3b6938cd	0.0035586834
151	0xba930c84	-0.001121894
152	0x3cb24d42	0.021765355
153	0x3c94fccb	0.018186947
154	0x3d51ab95	0.051189024
155	0x3c48a398	0.012246035
156	0xbd8a653c	-0.0675759
157	0xbcfcb958	-0.030850098
158	0x3ca71906	0.020397674
159	0xbc7bc61f	-0.01536706
160	0x3c920848	0.017826214
161	0x3c5662a7	0.013085044
162	0x3bc923ec	0.0061383154
163	0x3d18e3ed	0.037326742
164	0x3e052085	0.13000686
165	0x3ce020a6	0.027359318
166	0xbcd056c5	-0.025432
167	0xbc915f65	-0.017745683
168	0xbd8010c3	-0.06253197
169	0x3cd3176b	0.025768002
170	0xbcbc80a4	-0.02301056
171	0xbd1e30cf	-0.038620766
172	0x3d16e92c	0.036843464
173	0x3d523d1f	0.05132782
174	0x3cefdbe9	0.029279666
175	0xbd252c6e	-0.040325575
176	0x3d152872	0.036415525
177	0xbdbd887a	-0.092545465
178	0x3d5b1e82	0.05349589
179	0xbd53252a	-0.051549114
180	0x3d8e9688	0.06962305
181	0xbce892f8	-0.028390393
182	0xbce96cfb	-0.028494349
183	0xbdc30b40	-0.0952363
184	0xbceafdc5	-0.02868546
185	0xbcaf42ba	-0.021394122
186	0xbcd2c870	-0.025730342
187	0x3d2a9733	0.0416481
188	0x3e035610	0.12825799
189	0xbd991f2d	-0.074766494
190	0x3c865a14	0.016400374
191	0x39ffe2ba	0.00048806315
192	0x3dab9072	0.0837716
193	0x3db1eacb	0.08687361
194	0x3becff25	0.007232564
195	0xbc031851	-0.008001403
196	0xbc5d6e68	-0.013515092
197	0x3d4f9e7b	0.050688248
198	0xbe0c7cd0	-0.13719487
199	0x3cf653be	0.030069228
200	0x3d8c5679	0.06852431
201	0x3cfe445c	0.031038456
202	0x3cade7d9	0.021228718
203	0xbb67d8ed	-0.00353771
204	0x3d4546a0	0.048163056
205	0x3cb66a52	0.022267494
206	0x3d9f3bd4	0.07775083
207	0x3b52ca65	0.0032164094
208	0x3ddff705	0.10935787
209	0xbd86c763	-0.06580999
210	0x3d16d841	0.03682733
211	0xbcbfb401	-0.023401262
212	0x3b38220c	0.0028096465
213	0xbd0333d8	-0.032031864
214	0x3d1b822f	0.03796595
215	0x3c7af27b	0.015316601
216	0x3d2f8132	0.04284782
217	0xbc3e2364	-0.0116051175
218	0xbd64d081	-0.055862907
219	0x3db2dfb5	0.08734075
220	0xbca330dd	-0.01992076
221	0xbcfb7fa4	-0.030700512
222	0x3d0f09c1	0.03492141
223	0xbd68d317	-0.056841936
224	0xbd009bde	-0.031398647
225	0xbc713b3f	-0.014723598
226	0x3c7e004e	0.015503002
227	0xbd011f9c	-0.031524286
228	0xbd033891	-0.032036368
229	0xbc32ff4f	-0.010925128
230	0x3d1fa243	0.038973104
231	0x3d5dff9f	0.054198857
232	0xbde9db0b	-0.11418732
233	0xbd62f678	-0.055410832
234	0xbbd4cb26	-0.0064939437
235	0x3c8394f7	0.016062243
236	0xbd5efbb6	-0.05443927
237	0x3cb95752	0.022624645
238	0x3d83f2e7	0.06442814
239	0x3d9a479d	0.075331904
240	0x3cd5df5c	0.026107483
241	0x3ceeb357	0.02913825
242	0xbc1eff6e	-0.009704454
243	0x3cd407c2	0.025882605
244	0x3d7bc812	0.0614701
245	0xbcac6260	-0.021043003
246	0xbc2ee703	-0.010675195
247	0x3c2ff5fb	0.010739799
248	0xbced206e	-0.028946128
249	0x3d753ce2	0.059872515
250	0x3dabe7c9	0.08393819
251	0xbd702965	-0.058633227
252	0x3ca126a3	0.019671744
253	0x3d84505f	0.06460642
254	0x3bf3c784	0.0074395556
255	0x3dc9d837	0.09855693

layers.2.bias f4 [256]
0	0xbc32568e	-0.010884894
1	0xbca0d48e	-0.019632604
2	0x3c4af4ba	0.012387449
3	0xbcc336c4	-0.023829825
4	0x3da2717d	0.079318024
5	0xbc2ecda2	-0.010669144
6	0xbdac0485	-0.083992995
7	0xbda6f2a2	-0.08151747
8	0xbda9a540	-0.08283472
9	0x3cbcdac2	0.02305353
10	0x3d2b9e4b	0.041899007
11	0xbce51da5	-0.027968237
12	0xbd913c23	-0.07091548
13	0xbd0a9d82	-0.033841617
14	0xbca9f799	-0.020747947
15	0x3d0b09b6	0.033944808
16	0x3cbc8bd9	0.023015903
17	0xbd7e5c63	-0.062099826
18	0x3cef9407	0.02924539
19	0xbd334b04	-0.043772712
20	0x3b99d781	0.0046948795
21	0xbb9f67af	-0.004864655
22	0xbd92a5a0	-0.07160497
23	0xbd4577aa	-0.048209824
24	0xbdb38438	-0.08765453
25	0x3d327b14	0.043574408
26	0xbd0be24b	-0.034151357
27	0x3cf8c230	0.030366033
28	0xbc9d18bb	-0.019176831
29	0xbe040c60	-0.12895346
30	0x3d56514f	0.052323636
31	0xbc9f6a8d	-0.019459987
32	0xbd09343b	-0.033497076
33	0xbdb2e843	-0.08735707
34	0x3bc2e1c9	0.005947326
35	0xbc83f7ab	-0.016109308
36	0xbd8f247e	-0.06989382
37	0x3be2f4c5	0.0069261515
38	0x3da30a26	0.0796092
39	0x3db10b92	0.08644785
40	0x3cc0154d	0.023447657
41	0x3ab60c11	0.0013889094
42	0x3c37eba3	0.011225614
43	0x3d2bcf0b	0.0419455
44	0xbd63030b	-0.055422824
45	0xbd51ae7a	-0.051191784
46	0x3d7483ca	0.059695996
47	0x3b887a32	0.0041649574
48	0x3dba79b2	0.09105243
49	0xbdffa84e	-0.124832734
50	0x3dcf3cb9	0.10119004
51	0xbce2aaf0	-0.0276694
52	0xbcb9febb	-0.022704473
53	0xbd1c8757	-0.038215008
54	0xbd6c27ed	-0.057655264
55	0xbd1a2956	-0.037637077
56	0xbd90e641	-0.070751674
57	0x3cd48d08	0.025946155
58	0xbc4f891b	-0.012666966
59	0xbc8250ea	-0.015907723
60	0xbd59ed96	-0.053205095
61	0x3d3808f0	0.0449304
62	0x3d4aee75	0.049543817
63	0xbbba0d73	-0.005677873
64	0xbda84c72	-0.08217706
65	0x3ccfb6ad	0.025355661
66	0xbd3d6b99	-0.04624519
67	0xbdb1c761	-0.08680607
68	0x3ad65e30	0.0016354974
69	0x3c5d9b1d	0.013525751
70	0xbbf997ce	-0.0076169735
71	0xbd9e1330	-0.077185035
72	0xbda6b00b	-0.08139046
73	0xbd8ab5ee	-0.067729816
74	0x3d8b2c44	0.067955524
75	0xbd87aa20	-0.06624246
76	0xbce7ef36	-0.028312307
77	0xbd8b3d14	-0.06798759
78	0x3d71cf1b	0.0590354
79	0xbd8bd93d	-0.06828544
80	0x3c7b4fb5	0.015338828
81	0x3c4be51e	0.0124447625
82	0xbd8efbf8	-0.06981653
83	0xbdacc294	-0.0843555
84	0x3b7596a9	0.0037473834
85	0x3d02ee3b	0.031965476
86	0x3add74b0	0.0016895737
87	0x3cd76206	0.026291858
88	0xbd32249d	-0.04349195
89	0xbe2c0eb3	-0.16802482
90	0xbcf74a49	-0.03018679
91	0x3d88dab4	0.06682339
92	0xbd20de17	-0.0392743
93	0xbcdb1c33	-0.026746845
94	0xbdde19ca	-0.108447626
95	0xbd371fde	-0.044708125
96	0xbd84464c	-0.064587206
97	0xbdc19d4d	-0.09453831
98	0x3d2713b9	0.040790293
99	0x3d3a97ed	0.045555044
100	0x3ce101a3	0.0274666
101	0xbd670dbc	-0.056409582
102	0x3d9850e0	0.07437301
103	0x3d746659	0.05966792
104	0xbd519ccb	-0.05117492
105	0xbdee39c8	-0.11632115
106	0xbc93ecf2	-0.01805732
107	0x3d232596	0.039830767
108	0x3d49ad7e	0.04923772
109	0x3d91a3b9	0.07111306
110	0xbd0f22a0	-0.03494513
111	0xbd6ad440	-0.057331324
112	0x3dba1fa6	0.09088068
113	0xbdbadba9	-0.09123928
114	0xbd9c83b0	-0.07642305
115	0xbd8ce1a6	-0.068789765
116	0xbd125e6d	-0.035734583
117	0x3d0969b2	0.033548065
118	0x3d183e60	0.03716886
119	0xbc4ff3b6	-0.012692383
120	0xbd1de0ac	-0.038544342
121	0xbcdf7242	-0.027276162
122	0xbc986b13	-0.018605744
123	0xbd35b61c	-0.044363126
124	0x3da5226f	0.08063208
125	0xbcf9c434	-0.030489065
126	0x3d27fc09	0.041011844
127	0xb9ea77fe	-0.0004472136
128	0xbdbb67ba	-0.09150644
129	0xbcd596bf	-0.026072858
130	0xbda2190d	-0.07914934
131	0x3c706f0a	0.014674911
132	0xbd2ffd0b	-0.04296593
133	0x3d018ac1	0.031626467
134	0x3d83aba5	0.06429223
135	0xbadd0e53	-0.0016865231
136	0xbd8ddba6	-0.0692666
137	0xbd86f6d4	-0.065900475
138	0x3bcb484c	0.006203687
139	0xba28f1e3	-0.00064447353
140	0xbb5d6d64	-0.0033787126
141	0xbc8582ab	-0.016297659
142	0xbc90b52b	-0.017664513
143	0xbd69e74f	-0.05710536
144	0xbdb770ed	-0.08957086
145	0xbc41f13b	-0.011837299
146	0xbc841276	-0.016122084
147	0xbb6d4d3f	-0.0036209372
148	0xbdabf3ed	-0.083961345
149	0xbd5fbe70	-0.054624975
150	0xbcbead08	-0.023275867
151	0x3d05f7bc	0.03270696
152	0xbc282a7d	-0.010264036
153	0xbd0df37f	-0.034656044
154	0xbd41f29e	-0.04735052
155	0x3c98977b	0.018626919
156	0xbc1ec9a3	-0.009691629
157	0xba7b613d	-0.000958938
158	0xbda0efac	-0.07858214
159	0x3d0a754d	0.033803273
160	0x3cb22574	0.021746375
161	0x3d8736de	0.06602262
162	0xbb719dfe	-0.0036867852
163	0x3c258bc2	0.010104122
164	0xbd978b08	-0.07399565
165	0x3c0c4a80	0.008562684
166	0x3cae95a2	0.021311585
167	0xbcfaf797	-0.030635638
168	0xbd11d7bd	-0.035606135
169	0xbb4ea61a	-0.003153211
170	0x3cdec622	0.027194086
171	0xbb4f6a79	-0.0031649156
172	0xbd49e490	-0.04929024
173	0xbd046e68	-0.032331854
174	0xbd47b6b7	-0.048758235
175	0xbe01be3c	-0.12670225
176	0xbd081394	-0.033221796
177	0xbbcde878	-0.006283816
178	0xbd54ec31	-0.051983062
179	0xbdff8f38	-0.12478489
180	0xbd687459	-0.056751583
181	0x3db08ca7	0.08620577
182	0x3b93c149	0.0045091254
183	0xbd873a5a	-0.066029266
184	0xbd854f62	-0.06509282
185	0xbdbe3292	-0.09286989
186	0xbd19411a	-0.0374156
187	0xbb3555ed	-0.0027669624
188	0x3cb555ec	0.022135697
189	0xbd8c54b4	-0.06852093
190	0xbd8e5a45	-0.06950811
191	0x3b800ca6	0.003907758
192	0xbdf6b699	-0.120465465
193	0xbc88b136	-0.016686063
194	0xbd7fac8a	-0.062420405
195	0xbccc07d2	-0.024906073
196	0x3d950bc7	0.07277637
197	0xbc64208f	-0.013923778
198	0x3c0684f6	0.008210411
199	0xbcd81fe3	-0.026382392
200	0xbdb247a1	-0.087050684
201	0xbc7a8cfd	-0.015292403
202	0xbc157c2a	-0.009123841
203	0xbbdda148	-0.006763611
204	0x3d50b835	0.050956924
205	0x3cb48382	0.022035364
206	0xbd4582b7	-0.048220363
207	0x3c95bdc9	0.018278973
208	0x39142a85	0.0001413022
209	0xbddd291a	-0.10798855
210	0x3cea476d	0.028598512
211	0xbb0ba6d7	-0.002130916
212	0x3d02d3cf	0.031940278
213	0x3d41c4ff	0.04730701
214	0x3d864254	0.0655562
215	0xbd153cd7	-0.036434975
216	0x3caba16c	0.020950995
217	0xbd8a22d3	-0.067449234
218	0xbc515fe6	-0.012779212
219	0x3c6daafc	0.014506098
220	0x3ccead44	0.025229104
221	0xbcedb970	-0.029019088
222	0x3d99d5d5	0.07511488
223	0xbbec3ece	-0.0072096353
224	0xbc69763a	-0.014249379
225	0x3d05c6c4	0.03266026
226	0x3d95d971	0.07316864
227	0x3c387a96	0.0112596955
228	0xbd4fc8bc	-0.050728545
229	0x3d2185e5	0.039434332
230	0xbd91ca8c	-0.07118711
231	0xbab0893e	-0.0013468636
232	0x3c6484dd	0.013947693
233	0x3c8369d6	0.016041677
234	0xbdd02004	-0.101623565
235	0xbc19d348	-0.009388752
236	0xbc4b7b4f	-0.012419536
237	0x3d0bd0b4	0.03413458
238	0xbd1ad48d	-0.03780036
239	0xbda6bb86	-0.08141236
240	0x3db299d5	0.087207474
241	0xbd561951	-0.052270237
242	0xbde9e9fb	-0.11421581
243	0xbdc90093	-0.09814563
244	0xbc9b01b9	-0.01892172
245	0x3d93d1b8	0.07217735
246	0xbe3d1d0f	-0.18468116
247	0x3a847fd0	0.0010108892
248	0x3c90e5ab	0.01768764
249	0x3cff7c83	0.031187302
250	0xbd3cf118	-0.046128362
251	0xbced8c8c	-0.028997682
252	0x3babef32	0.00524702
253	0xbdf51faa	-0.1196893
254	0xbd7ad043	-0.06123377
255	0x3c6cd1cf	0.014454319

layers.4.weight f4 [128, 256]
0	0x3c644c29	0.013934174
1	0xbd13d8de	-0.036095493
2	0xbd14f5e9	-0.03636733
3	0xbd6aecfc	-0.057354912
4	0xbd881af9	-0.066457696
5	0x3cfe7214	0.031060256
6	0xbd57e54f	-0.05270892
7	0x3d2b31a3	0.041795384
8	0x3d8b0cee	0.067895755
9	0xbc73bef2	-0.014877068
10	0xbd990ed3	-0.074735306
11	0x3c9931fe	0.018700596
12	0xbcc059e2	-0.02348036
13	0x3d4f84a3	0.0506636
14	0xbc1847a1	-0.009294421
15	0x3c63664f	0.013879373
16	0xbe2e870e	-0.17043707
17	0x3cd2aa2f	0.025715915
18	0x3d845084	0.0646067
19	0x3bd8d016	0.0066166027
20	0x3d95e24c	0.07318553
21	0xbd9ff770	-0.07810867
22	0xbccc8a20	-0.024968207
23	0xbcc76f0a	-0.02434494
24	0x3cb198f6	0.021679383
25	0x3d9ca07f	0.076478
26	0xbd849ed3	-0.06475606
27	0x3d9d7129	0.07687599
28	0xbd8cc81e	-0.06874107
29	0xbae376f9	-0.0017354182
30	0xbd2e9f05	-0.04263212
31	0x3d128a6b	0.035776537
32	0x3b6ee284	0.0036450932
33	0xbd6a3cb3	-0.057186794
34	0x3d8ad2cc	0.067784876
35	0x3d07dab9	0.033167575
36	0x3ca721d1	0.020401867
37	0x3caee462	0.021349136
38	0xbd8270c9	-0.06369168
39	0xbd897a25	-0.0671275
40	0xbcb78bf1	-0.022405596
41	0x3d14070d	0.036139537
42	0xbdd0694c	-0.10176334
43	0xbd4e2760	-0.05033052
44	0x3b6e1e0e	0.0036333832
45	0xbda698ed	-0.08134637
46	0xbd8bc217	-0.06824129
47	0xbc9660e3	-0.018356746
48	0x3d75e327	0.060031082
49	0x3bf44814	0.0074548814
50	0x3d2a07fc	0.04151152
51	0xbb79d90c	-0.0038123755
52	0x3d48de05	0.04903986
53	0xbda796a1	-0.08183027
54	0x3ddbc63c	0.107311696
55	0xbd05a3bf	-0.032626864
56	0xbd0c5f86	-0.034270786
57	0x3cacdf1e	0.021102484
58	0x3d830d19	0.063989826
59	0x3bc752de	0.0060828766
60	0x3cd8bb2f	0.026456444
61	0x3d40246f	0.046909746
62	0xbd8ed190	-0.069735646
63	0x3dd4d2bf	0.10391759
64	0x3d089ead	0.03335445
65	0x3d5a8602	0.053350456
66	0x3cd1bba3	0.025602167
67	0xb9cf10ba	-0.0003949458
68	0x3b4295ce	0.0029691341
69	0x3cf11535	0.029429058
70	0x3dac41fb	0.08411022
71	0xbc18c06f	-0.0093232235
72	0xbdd29c30	-0.10283697
73	0xbd8f2f0e	-0.06991397
74	0x3ca7053a	0.020388234
75	0xbdf5fe76	-0.12011425
76	0x3d5f770f	0.054556902
77	0xbd12802c	-0.035766765
78	0xbd8a159f	-0.06742405
79	0x3c16b93f	0.00919944
80	0xbd0d54c5	-0.03450467
81	0x3c6aee25	0.014339005
82	0xbadb33d7	-0.0016723824
83	0xbdb7762e	-0.08958088
84	0xbb29b89f	-0.0025897396
85	0x399ab109	0.0002950507
86	0xbd71113c	-0.058854327
87	0xbe20d7ee	-0.1570737
88	0xbd342a73	-0.043985795
89	0xbd355f5d	-0.0442804
90	0x3d7b6821	0.061378602
91	0xbd66db66	-0.05636158
92	0xbb83b39c	-0.004019214
93	0xbc2597f8	-0.010107033
94	0xbd6a021d	-0.05713092
95	0x3d0a9a2c	0.033838436
96	0xbbb4c193	-0.00551624
97	0x3d0e4464	0.03473319
98	0x3d99351d	0.07480834
99	0x3c8bc8b1	0.01706347
100	0xbe093996	-0.13400874
101	0xbdefbb55	-0.117056526
102	0xbde7fb5a	-0.113272384
103	0xbd15d956	-0.03658422
104	0x3d38658d	0.04501872
105	0x3d84f8e3	0.06492784
106	0x3ce7caed	0.028295005
107	0x3c54143d	0.012944278
108	0x3c21388f	0.009840145
109	0x3e25506b	0.16143958
110	0xbc98bd3d	-0.018644923
111	0x3db7c3cb	0.089728914
112	0x3cdc977c	0.026927702
113	0xbd80d8ba	-0.06291337
114	0xbd450d57	-0.048108425
115	0x3db5ed61	0.08883167
116	0xbcc049ce	-0.023472693
117	0x3de6e0e4	0.11273363
118	0x3d7e804b	0.06213407
119	0xbe089c27	-0.13340817
120	0xbc9f3a87	-0.019437088
121	0xbc2114af	-0.0098315915
122	0x3d7b6d7e	0.061383717
123	0xbca887e6	-0.020572614
124	0xbbd3697a	-0.006451783
125	0x3de6dd0d	0.11272631
126	0x3de0b5fb	0.1097221
127	0x3bb66080	0.005565703
128	0x3be0189c	0.006838871
129	0xbdd530cd	-0.10409699
130	0x3d4f9416	0.050678335
131	0xbc03f2e0	-0.008053511
132	0xbd46c1a3	-0.04852451
133	0xbd8e2def	-0.06942355
134	0x3d97ee06	0.07418446
135	0x3d93c950	0.07216132
136	0x3ccf70ef	0.025322406
137	0xbd0dc809	-0.034614597
138	0x3d8eab51	0.0696627
139	0x3ca9c427	0.020723416
140	0xbcc1fcc0	-0.02368009
141	0x3d8e2da6	0.069423005
142	0x3d885186	0.06656174
143	0xbae6bb2f	-0.0017603392
144	0xbd9aa3c6	-0.075507686
145	0x3d4fd5ca	0.050740995
146	0xbd8d0461	-0.06885601
147	0xbd3fd055	-0.04682954
148	0x3ddc7822	0.10765101
149	0xbc816744	-0.015796311
150	0xbd4350ee	-0.047684602
151	0xbc904fba	-0.017616142
152	0x3d289d7e	0.04116582
153	0x3c7e1b73	0.015509474
154	0x3c6567ce	0.0140018
155	0x3b9371e6	0.0044996617
156	0x3c36a0f7	0.011146775
157	0x3d3c782b	0.04601304
158	0x3cd641cd	0.026154423
159	0x3d8faea2	0.070157304
160	0xbcbf03bf	-0.023317216
161	0x3d768e6a	0.06019441
162	0x3cd157ec	0.02555462
163	0x3d6af638	0.05736372
164	0xbcba2ce8	-0.022726491
165	0x3c7ee1a5	0.015556728
166	0xbba52e88	-0.0050409473
167	0xbd548f0f	-0.051894244
168	0xbccc579d	-0.024944121
169	0xbdcca049	-0.099915095
170	0x3cb0bda6	0.021574806
171	0x3bbccb52	0.0057615424
172	0x3c29d57a	0.010365838
173	0x3d8c7535	0.06858293
174	0x3ca0847f	0.019594429
175	0xbdec21d4	-0.1152989
176	0xbcbfcf5d	-0.023414308
177	0xbc92b042	-0.017906312
178	0xbd545a83	-0.05184413
179	0x3cbddcb6	0.023176532
180	0xbd7732c9	-0.060351167
181	0x3c09d7ee	0.008413298
182	0xbd8a415d	-0.06750748
183	0xbd373a85	-0.044733543
184	0xbd7465aa	-0.059667267
185	0x3ba744fa	0.005104658
186	0xbd434c03	-0.047679912
187	0x3d14db6e	0.036342077
188	0x3d9c1ce6	0.076226994
189	0x3d2de86b	0.04245798
190	0xbca34d4a	-0.019934315
191	0xbc4e4a25	-0.01259092
192	0x3de282ac	0.1106008
193	0x3cd6329e	0.026147183
194	0xbd703145	-0.058640737
195	0xbd074aa0	-0.033030152
196	0xbcbdd4b6	-0.023172718
197	0xbd4a77be	-0.0494306
198	0xbab6bcf2	-0.0013941808
199	0xbdbd2235	-0.0923504
200	0xba6a625e	-0.00089410495
201	0x3d8d2bc2	0.06893112
202	0xbaf21cfa	-0.001847177
203	0xbd048066	-0.032349013
204	0xbc4abe75	-0.01237451
205	0xbb11b086	-0.002223046
206	0xbd7c130b	-0.0615416
207	0x3d0bd0e9	0.03413478
208	0x3d7e9a6c	0.062158987
209	0x3d8c8b6d	0.06862531
210	0xbd2468f3	-0.04013915
211	0x3cc29e07	0.023756994
212	0x3d8bbc3e	0.06823014
213	0x3abc782e	0.0014379078
214	0xbd132dbd	-0.03593229
215	0xbe07598a	-0.1321775
216	0xbcf6d1e9	-0.03012939
217	0xbd942e40	-0.07235384
218	0x3c91045f	0.01770228
219	0xbd8d6b84	-0.069052726
220	0xbd2721c3	-0.040803682
221	0xbdb9f822	-0.09080531
222	0xbdcccb6c	-0.09999737
223	0x3c867651	0.01641384
224	0x3abf0ca4	0.0014575911
225	0xbde58c9b	-0.11208459
226	0x3cfc5c07	0.0308056
227	0x3da9f162	0.08297993
228	0x3db5dde2	0.088802114
229	0x3dec6cc2	0.115441814
230	0x3da6fd79	0.08153815
231	0x3d6688f4	0.056282952
232	0x3d2dc4ae	0.042423896
233	0xbb8a0e71	-0.0042131473
234	0x3d6fde61	0.058561686
235	0x3d29dcde	0.0414704
236	0x3c161877	0.009161106
237	0x3daaebaa	0.083457306
238	0xbd5cc748	-0.053900987
239	0xbe1ed0e2	-0.1550937
240	0xbc8b4b6b	-0.017003736
241	0xbd7eeb06	-0.062235855
242	0xbe06cbe2	-0.13163713
243	0xbdb0f53a	-0.08640523
244	0xbc93d17a	-0.018044222
245	0xbd93033a	-0.0717835
246	0x3dcab6ad	0.09898124
247	0x3d965000	0.073394775
248	0x3cddcf23	0.02707631
249	0x3ccbf76f	0.024898259
250	0xbdb67c2b	-0.08910402
251	0xbd73e116	-0.05954083
252	0xbcbb8c3f	-0.022894023
253	0xbd23c10b	-0.039979022
254	0x3d1a0e05	0.037611026
255	0x3d4031dc	0.04692255

layers.4.bias f4 [128]
0	0x3b08115e	0.0020762305
1	0x3b8a3cd4	0.004218677
2	0x3bd02581	0.006352127
3	0xbcb190e9	-0.021675544
4	0x3c10b5a9	0.008832374
5	0xbbad2962	-0.005284474
6	0x3d5546be	0.052069418
7	0xbc8ac473	-0.016939377
8	0xbd4e58eb	-0.050377768
9	0x3d663932	0.05620689
10	0xbe0ed8b0	-0.13949847
11	0xbdf10468	-0.117684186
12	0xbc890751	-0.016727122
13	0xbd2d8647	-0.042364385
14	0xbe168e69	-0.14702763
15	0xbc833f13	-0.016021287
16	0xbcb3e30c	-0.02195885
17	0x3cde7206	0.02715398
18	0xbda54199	-0.080691524
19	0xbd4ed297	-0.050493803
20	0xbd817342	-0.06320812
21	0x3d57ad16	0.052655302
22	0x3c7e8b45	0.015536134
23	0xbdd38bb5	-0.103293814
24	0xbca1f839	-0.019771682
25	0xbc20cd9b	-0.009814645
26	0x3cf7c92d	0.030247295
27	0x3d8171a0	0.063205004
28	0x3d8300cd	0.06396637
29	0xbc8b9a76	-0.017041426
30	0xbd98934c	-0.0744997
31	0x3d800ea3	0.06252792
32	0x3d107983	0.035272133
33	0x3c37db3c	0.011221703
34	0xbd95c0f3	-0.07312193
35	0xb7aab881	-2.0351496e-05
36	0x3d635041	0.055496458
37	0x3d55c76f	0.052192148
38	0x3cdff025	0.02733619
39	0x3c0baa07	0.008524424
40	0x3e0cb16d	0.13739558
41	0xbe53a71d	-0.20669217
42	0xbe010834	-0.12600785
43	0xbcd80e86	-0.026374113
44	0x3cda10c6	0.026619326
45	0xbde9f604	-0.11423877
46	0xbca4ef32	-0.020133588
47	0x3d531795	0.05153616
48	0xbdbe8df2	-0.09304418
49	0xbd95d925	-0.07316808
50	0xbd17a422	-0.037021764
51	0xbde170de	-0.11007856
52	0xbd57c82d	-0.052681137
53	0xbdc51f04	-0.096250564
54	0xbc13930b	-0.009007226
55	0x3cf24db0	0.02957806
56	0xbd3a99f5	-0.04555698
57	0xbdd2431e	-0.10266708
58	0x3cc6cc8d	0.02426746
59	0xbda44850	-0.08021605
60	0x3d32c389	0.043643508
61	0xbcaa2986	-0.020771753
62	0xbd13f470	-0.036121786
63	0xbccc9348	-0.024972573
64	0x3c32d197	0.010914228
65	0x3bd99300	0.006639838
66	0x3d511488	0.05104497
67	0x3d7cca62	0.061716445
68	0xbdca2040	-0.098694324
69	0x3d9b3041	0.07577563
70	0xbd8cec7b	-0.068810426
71	0xbd0ab8ef	-0.033867773
72	0x3baed90b	0.005335932
73	0xbd5157de	-0.051109187
74	0xbdc012f2	-0.093786135
75	0x3dca785c	0.09886238
76	0x3d548f7f	0.05189466
77	0x3d80e2f8	0.06293291
78	0xbb55bf25	-0.0032615152
79	0xbce1d666	-0.027568053
80	0xbe099432	-0.13435438
81	0xbd5f6a8a	-0.054544963
82	0xbcb9fe08	-0.02270414
83	0xbe041946	-0.12900266
84	0xbe360bf7	-0.17778002
85	0xbc9743bd	-0.018464917
86	0xbd55e439	-0.052219603
87	0xbe28c148	-0.16479981
88	0xbdf6128c	-0.12015256
89	0x3caa230e	0.020768669
90	0xbda0067d	-0.078137375
91	0xbd644c85	-0.055737037
92	0xbd91216e	-0.07086454
93	0xbda37f0a	-0.07983215
94	0x3d34c8dd	0.04413687
95	0xbdee1806	-0.11625676
96	0xbe1fa8e0	-0.15591764
97	0x3c3dd010	0.0115852505
98	0xbd6809c6	-0.056649946
99	0xbcbf21f0	-0.023331612
100	0xbb91e5ea	-0.0044524567
101	0x3d112dc9	0.035444055
102	0x3c6939de	0.014234988
103	0xbd0e35ee	-0.0347194
104	0x3c8b5d5a	0.017012287
105	0x3d877c67	0.06615525
106	0x3cbace8d	0.02280357
107	0x3d1b91b2	0.037980743
108	0xbcf6943a	-0.030099977
109	0xbdb8f2c4	-0.09030679
110	0xbc2cd5b2	-0.010548996
111	0xbd09b498	-0.033619493
112	0x3d97b6fe	0.0740795
113	0xbcee0aa8	-0.029057816
114	0x3dce5f91	0.100768216
115	0x3cb23193	0.021752154
116	0x3c9316e6	0.017955255
117	0xbd87bc59	-0.06627721
118	0x3db235e5	0.08701686
119	0xbc812e07	-0.015769018
120	0x3d346306	0.04403975
121	0xbdb0666f	-0.08613288
122	0xbe1ad3a9	-0.15119804
123	0xbde7c17f	-0.11316203
124	0xbd4e3f52	-0.050353356
125	0x3d4e1bff	0.050319668
126	0xbc3336a3	-0.010938319
127	0xbc66c57f	-0.014085173

layers.6.weight f4 [128, 128]
0	0xbcc1b6bc	-0.023646705
1	0x3e061bb3	0.13096504
2	0xbd0dcae0	-0.034617305
3	0x3dc88e17	0.097927265
4	0x3c392370	0.011299953
5	0xbdb16db9	-0.08663506
6	0xbe800a89	-0.25008038
7	0x3d5bb394	0.053638056
8	0x3d81da28	0.06340438
9	0xbdcddffb	-0.100524865
10	0xbd6faf3e	-0.058516733
11	0xbc251e9b	-0.010078098
12	0x3a86d1c7	0.0010285907
13	0xbc06a445	-0.008217876
14	0xbd9006bb	-0.07032534
15	0xbd4790a9	-0.048721943
16	0xbe12f40b	-0.14350908
17	0xbddd5476	-0.10807125
18	0xbd06e841	-0.03293634
19	0x3dab883f	0.08375596
20	0xbe8fdd08	-0.2809832
21	0xbe482d1e	-0.19548461
22	0x3cd2fa17	0.025754018
23	0xbc891971	-0.016735764
24	0xbdf5a341	-0.11994029
25	0xbd8ff7b9	-0.07029671
26	0xbc605464	-0.013691995
27	0xbd92bc82	-0.07164861
28	0xbe441445	-0.19148357
29	0xbd855a81	-0.06511403
30	0xbcca9693	-0.024730003
31	0xbdfd5629	-0.12369949
32	0x3cb26884	0.021778353
33	0x3ce1d892	0.02756909
34	0xbe47a45c	-0.19496292
35	0xbc9df92a	-0.01928385
36	0xbb968036	-0.0045929207
37	0xbdaf1bfc	-0.085502595
38	0xbd19e0c3	-0.037567865
39	0xbe16f0ef	-0.14740346
40	0xbda3f3e3	-0.08005502
41	0x3e08ba7d	0.1335239
42	0xbd71a37f	-0.058993813
43	0x3da4f3a2	0.08054282
44	0x3d1c3db2	0.038144775
45	0x3d67675b	0.05649505
46	0xbdd7662b	-0.10517534
47	0xbe030900	-0.12796402
48	0x3d283939	0.041070197
49	0x3d95b747	0.07310348
50	0xbd1d64bf	-0.038426157
51	0x3cc6fdb8	0.024290904
52	0x3e02bd6e	0.12767574
53	0x3e1d05f1	0.15334298
54	0xbd64d50e	-0.055867247
55	0x3ce96623	0.028491085
56	0x3ca01898	0.019542977
57	0x3bcfcde7	0.006341684
58	0xbda93a43	-0.08263066
59	0xbe05d926	-0.13071117
60	0xbd988f61	-0.07449222
61	0xbc73ac41	-0.0148726115
62	0xbd078727	-0.033087876
63	0xbcde2e07	-0.027121557
64	0x3e8bbf92	0.27294594
65	0x3cdb7288	0.026788011
66	0xbe831f06	-0.25609607
67	0x3daf79e2	0.08568169
68	0xbc4a8260	-0.012360185
69	0xbd98c04f	-0.07458555
70	0x3da455c6	0.080241725
71	0x3cf53810	0.02993396
72	0x3b2e5fdd	0.0026607432
73	0x3d6e116a	0.058122076
74	0x3de0a79c	0.10969469
75	0xbd99dfde	-0.075134024
76	0xbd88c13b	-0.06677481
77	0x3e4669e8	0.19376338
78	0xbe0b4850	-0.13601804
79	0xbe0bb39a	-0.13642731
80	0xbc0670b3	-0.0082055805
81	0xbd096fc5	-0.033553857
82	0x3c41616f	0.011803015
83	0xbe288706	-0.16457757
84	0xbe8ef899	-0.2792404
85	0xbe2ba202	-0.1676102
86	0xbd658e06	-0.056043647
87	0x3d8bee2f	0.06832539
88	0x3c08dc23	0.008353266
89	0xbdbfbc82	-0.09362127
90	0xbd1ef311	-0.038806025
91	0xbcc3b7f0	-0.02389142
92	0x3c719429	0.014744797
93	0xbb0bd1d7	-0.002133479
94	0x3c1ba874	0.009500612
95	0x3da27a50	0.079334855
96	0x3dd87761	0.10569645
97	0xbd240e19	-0.040052507
98	0x3dd63183	0.10458662
99	0xbdc0dead	-0.09417472
100	0xbe3c963f	-0.1841669
101	0xbcb71074	-0.022346713
102	0x3db12673	0.08649912
103	0xbd6682c4	-0.05627705
104	0x3db4a51f	0.08820557
105	0xbc5f981f	-0.013647108
106	0xbe222d05	-0.15837486
107	0xbcc9dc60	-0.024641216
108	0xbe12784e	-0.14303705
109	0x3ca8ee66	0.02062149
110	0xbe019fb0	-0.12658572
111	0xbd91ba4f	-0.07115614
112	0x3d9a613b	0.075380765
113	0xbe22c40b	-0.15895097
114	0xbdc245bc	-0.09485957
115	0xbe2e16eb	-0.1700093
116	0xbde987de	-0.11402868
117	0x3aad33e6	0.001321432
118	0xbe1fbec7	-0.1560012
119	0x3c8d9b5b	0.017285993
120	0xbde2f80f	-0.1108247
121	0x3d10179e	0.035178773
122	0x3d803660	0.06260371
123	0x3bbce5e1	0.0057647084
124	0x3d6d3165	0.057908434
125	0x3cbeab8a	0.023275156
126	0xbdc2b6e6	-0.09507541
127	0x3ddccb12	0.1078092
128	0xbdbc02a1	-0.09180189
129	0x3d758a6b	0.05994646
130	0x3d3a2bdb	0.04545198
131	0xbe0c08ca	-0.13675228
132	0xbd36467d	-0.044500817
133	0x3ce9365d	0.028468305
134	0x3cd1b104	0.025597103
135	0xbcee3b42	-0.02908099
136	0x3dbe7f57	0.09301632
137	0x3dd324f5	0.10309783
138	0x3bfbf78f	0.0076894234
139	0x3bd7db3e	0.006587415
140	0x3d285e6e	0.04110568
141	0xbc01d059	-0.007923209
142	0xbe188989	-0.14896215
143	0x3c8949da	0.016758848
144	0xbc556163	-0.013023707
145	0x3d98db4b	0.07463702
146	0xbdb24dcb	-0.08706244
147	0xbdf9a529	-0.12189705
148	0xbb1eaa0f	-0.002421025
149	0x3dcec118	0.100954235
150	0xbccaab04	-0.02473975
151	0xbdb77209	-0.08957297
152	0x3c857423	0.01629073
153	0x3cea7ac0	0.028622985
154	0xbda56c1c	-0.08077261
155	0xbdb384c1	-0.08765555
156	0x3de1bb67	0.11022072
157	0xbd9c25fa	-0.07624431
158	0xbb2e2e2e	-0.0026577818
159	0x3e0c7e3d	0.13720031
160	0x3d37d8d1	0.044884507
161	0x3d57a45f	0.05264699
162	0xbcc4791d	-0.023983533
163	0xbb7390df	-0.0037165207
164	0xbd5018cc	-0.0508049
165	0xbd412124	-0.047150746
166	0xbd96e574	-0.073679835
167	0x3dc68e8c	0.096951574
168	0x3e15f4df	0.14644192
169	0xbd8c413a	-0.068483785
170	0x3d6ebf1c	0.058287725
171	0x3d87cc2e	0.06630741
172	0xbcaf2aa2	-0.021382634
173	0xbe2f295c	-0.17105621
174	0xbe1c0fbc	-0.15240377
175	0x3d308a20	0.043100476
176	0xbd189bc8	-0.03725794
177	0x3cff624b	0.0311748
178	0xbc39ccf9	-0.011340373
179	0x3db0bd08	0.08629805
180	0xbe10b6ac	-0.14132184
181	0xbdebcf19	-0.1151411
182	0xbdbb4497	-0.09143942
183	0x3c46846d	0.012116534
184	0xbdc69b4c	-0.09697589
185	0xbd971c64	-0.07378462
186	0x3e1dfc79	0.15428342
187	0xb9d59c96	-0.00040743191
188	0x3c3effb1	0.011657641
189	0x3dca7494	0.09885517
190	0xbda6ffae	-0.08154236
191	0xbbd02801	-0.006352425
192	0xbd6877a7	-0.056754734
193	0xbd8c932a	-0.06864007
194	0x3de99c5c	0.11406776
195	0xbdc63b2c	-0.09679255
196	0xbe099166	-0.13434371
197	0x3ca3a8ee	0.019978013
198	0xbe0bbc5c	-0.13646072
199	0xbd547a8e	-0.05187469
200	0xbd8bbe48	-0.06823403
201	0xbd13c6bf	-0.03607821
202	0x3cc56cf1	0.024099799
203	0xbd3e2d39	-0.046429846
204	0x3c7bc75b	0.015367354
205	0xbd5a2ea9	-0.053267155
206	0xbdc7ac7e	-0.09749697
207	0x3d812a7c	0.063069314
208	0xbd5891af	-0.05287331
209	0x3d7b660a	0.06137661
210	0xbd33a939	-0.043862555
211	0xbd403fa9	-0.04693571
212	0x3c51787a	0.0127850715
213	0x3deb631a	0.114935115
214	0xbbc937d8	-0.0061406903
215	0xbe24d01f	-0.16095017
216	0xbcf83506	-0.030298721
217	0x3c306fed	0.010768873
218	0xbd0086b8	-0.031378478
219	0x3e07475d	0.13210817
220	0xbe11d2e4	-0.14240605
221	0xbda843f4	-0.08216086
222	0xbd63315b	-0.05546699
223	0xbdf03fde	-0.11730932
224	0xbb90e58e	-0.0044218963
225	0xbd8b4f89	-0.068022795
226	0x3c86b5ff	0.016444204
227	0x3d0a8f14	0.033827856
228	0x3d298262	0.04138411
229	0x3b8c1cb8	0.0042758845
230	0x3ac8a54f	0.0015308055
231	0x3cbf2ba1	0.023336234
232	0xbb868724	-0.0041054655
233	0xbb07ed99	-0.0020740984
234	0x3d2dfa81	0.042475227
235	0xbc8efe02	-0.017455105
236	0x3d37f463	0.0449108
237	0xbd620c3a	-0.05518744
238	0xbdfc9099	-0.12332267
239	0xbcc5c35f	-0.024141012
240	0xbd7c5563	-0.06160487
241	0xbc77230f	-0.015084042
242	0x3d87eff1	0.06637562
243	0xbe12ce46	-0.143365
244	0xbd5a386b	-0.05327646
245	0xbdd58d63	-0.10427358
246	0xbd8fab1f	-0.07015061
247	0x3dc0f311	0.09421361
248	0x3cc050b5	0.023475984
249	0x3db72496	0.08942525
250	0x3d26355c	0.04057823
251	0xbdc63704	-0.09678462
252	0xbd2d69c8	-0.04233721
253	0x3c36d0f9	0.011158221
254	0x3c0a24b8	0.008431606
255	0xbd5477c4	-0.05187203

layers.6.bias f4 [128]
0	0x3d699334	0.05702515
1	0x3db5e174	0.088808924
2	0x3d13b904	0.036065117
3	0xbd619084	-0.05506946
4	0x3cc9588b	0.024578353
5	0x3df28b85	0.118430175
6	0x3d334cde	0.04377448
7	0x3da851ec	0.0821875
8	0x3d25db5d	0.040492404
9	0x3db12817	0.08650225
10	0x3cc9bc5c	0.02462595
11	0xbdc95f29	-0.098326035
12	0xbc661c3b	-0.014044817
13	0xbd1542b8	-0.03644058
14	0xbcb84fd1	-0.022498997
15	0xbe13b5db	-0.14424841
16	0x3dc47586	0.09592728
17	0xbdaafb62	-0.08348729
18	0xbdd5335a	-0.10410185
19	0xbddc3fb0	-0.10754335
20	0x3d9aa9e4	0.07551935
21	0xbe034a90	-0.12821412
22	0x3d980deb	0.0742453
23	0x3cefa502	0.029253487
24	0xbd52a7ff	-0.051429745
25	0x3d9b7a6a	0.07591708
26	0xbbca1198	-0.006166648
27	0xbe2afce3	-0.16698031
28	0x3db37a75	0.08763591
29	0x3db3bae4	0.08775881
30	0x3cc77a9a	0.024350453
31	0x3d687e35	0.056760985
32	0x3dc0320c	0.09384546
33	0xbbf413f3	-0.007448667
34	0xbdecefe7	-0.11569195
35	0xbdb10b3c	-0.08644721
36	0xbd8b57c9	-0.06803853
37	0x3c90cade	0.01767486
38	0x3e0bf7f6	0.13668808
39	0xbda89c6f	-0.08232962
40	0x3db20500	0.0869236
41	0xbdbb5ce6	-0.09148578
42	0xbcfca482	-0.030840162
43	0xbe1f41ee	-0.15552494
44	0xbcc80c73	-0.024419999
45	0xbde1c5ee	-0.1102408
46	0x3ddb3473	0.10703363
47	0xbc8d768f	-0.017268447
48	0x3d50bf11	0.050963465
49	0x3d5338b7	0.05156776
50	0x3da578b0	0.0807966
51	0x3d8a4c40	0.06752825
52	0xbd9167a0	-0.07099843
53	0x3d9bc335	0.07605592
54	0xbd7bbaa4	-0.06145729
55	0xbdb1daee	-0.08684336
56	0x3d072020	0.03298962
57	0xbd92da1f	-0.071705095
58	0xbc549e93	-0.01297726
59	0x3dd8b380	0.10581112
60	0x3d0bc52d	0.03412359
61	0x3d79f41b	0.061023813
62	0xbce55c3e	-0.027998086
63	0x3d558f7f	0.0521388
64	0x3d2fd58b	0.04292826
65	0x3cf441e3	0.029816573
66	0x3dd6be41	0.10485507
67	0xbd77a8a4	-0.060463563
68	0xbe0eecd8	-0.13957536
69	0xbc753078	-0.014965169
70	0xbcfe7285	-0.031060467
71	0x3d3f4e32	0.046705432
72	0x3baf2053	0.0053444295
73	0xbdc1a91f	-0.094560854
74	0x3ca3a037	0.019973857
75	0x3db6bdbd	0.089229085
76	0xbdafbc7f	-0.08580875
77	0x3c256826	0.010095632
78	0xbd9bc86a	-0.07606585
79	0x3c0364ed	0.008019668
80	0xbd782ee3	-0.06059159
81	0xbd75cb5b	-0.060008388
82	0x3dbd4ea7	0.09243517
83	0xbddc11ee	-0.10745607
84	0x3caa9d9a	0.020827103
85	0x3d747ad7	0.05968746
86	0xbdd594ea	-0.10428794
87	0xbdf2ab94	-0.11849132
88	0xbd688876	-0.056770764
89	0x3c70c1bb	0.014694626
90	0x3d2816bb	0.041037302
91	0x3ddf9e93	0.109189175
92	0xbd202f4c	-0.039107606
93	0x3b9b6a7b	0.004742918
94	0x3d992751	0.07478202
95	0x3dac6136	0.08416979
96	0xbdd110b4	-0.10208264
97	0xbe103f60	-0.14086676
98	0x3d43f10d	0.047837306
99	0x3cf5ae3e	0.029990312
100	0xbd4f04e0	-0.05054176
101	0xbe112d58	-0.14177454
102	0x3d48f99f	0.049066182
103	0x3bb7c57d	0.0056082592
104	0xbe079045	-0.13238628
105	0xbbc949ee	-0.0061428463
106	0xbe4ffcca	-0.20311275
107	0xbce5a0f1	-0.028030844
108	0xbda98760	-0.08277774
109	0xbe242f69	-0.1603371
110	0x3d021b6e	0.03176444
111	0x3d99e639	0.075146146
112	0x3d6ae00d	0.057342578
113	0x3c9c0827	0.019046856
114	0xb912e32e	-0.00014008276
115	0xbb98af50	-0.0046595708
116	0xbbdbb338	-0.006704714
117	0xbde9a857	-0.114090614
118	0x3d756ebc	0.059920058
119	0xbe0828d9	-0.13296832
120	0x3d4a5af6	0.049403153
121	0xbd522236	-0.051302157
122	0xb98bb52b	-0.00026647127
123	0xbde72bdc	-0.112876624
124	0xbb920a57	-0.004456799
125	0x3e1b6472	0.15175036
126	0xbd48660f	-0.048925456
127	0xbdc5c15f	-0.09656023
