checkpoint/mmi/dpe/pretrain/MMI_port_4_pad_4_res_8_range_0.03.pt (torch, 559675 bytes, 14 tensors)

freq f4 [4]
3.0255346 3.0401917 3.0305994 3.0035198
00000000: 5ca2 4140 8092 4240 57f5 4140 ab39 4040

phase_bias f4 [4]
0.016776599 -0.056291346 -0.0073968535 0.017098088
00000000: 146f 893c c191 66bd 4e61 f2bb 4a11 8c3c

layers.0.weight f4 [256, 8]
-0.0058018 0.20594977 -0.31665474 -0.29108828 -0.077278525 0.12929454 0.020125376 0.31122506
0.07464842 0.18272522 -0.08790211 -0.07057309 -0.32734945 -0.29426914 -0.07857421 0.083259106
0.17924218 0.25334388 -0.22916046 -0.13749264 0.18409932 0.3423904 -0.027856708 0.30383316
-0.072315164 0.039951716 0.34865153 -0.35120043 -0.23879153 -0.11219581 -0.21509904 0.31302866
-0.23431677 -0.19760747 -0.30303714 -0.3261299 -0.16825172 0.3380993 0.19525938 0.20046927
0.105031766 -0.14660434 0.030571094 -0.34761727 -0.2234997 -0.15698664 0.28845173 0.25419548
-0.19977571 -0.029270215 0.2431467 0.3631634 0.13228132 0.043455448 0.23761149 -0.3590586
0.08194674 -0.3233703 -0.31670448 -0.17418332 0.1881158 0.16831648 -0.17950094 0.13526417
0.097838156 -0.11464773 0.021092076 0.045347728 0.176987 0.3109194 -0.34075084 -0.18797767
0.14740852 0.3160638 0.32351777 0.32711482 0.042732462 -0.37842822 -0.012538377 -0.2790563
-0.37943807 0.41362655 0.24295533 -0.32700822 0.09051178 -0.07783706 -0.046423182 -0.15540612
0.10872498 -0.23281494 0.121643335 0.16090932 0.23506524 0.1287916 -0.39374816 -0.27442664
0.1886914 0.09351319 -0.23982187 -0.2302573 0.36347577 0.2592981 -0.14332186 -0.06709831
-0.28172708 -0.055657953 -0.37155536 -0.29217878 -0.016075743 0.058652442 -0.1254744 0.22314508
-0.2427742 0.41368687 0.29718098 -0.31463808 -0.11963139 -0.10526977 -0.0028275356 0.0508145
0.20347266 0.0313457 -0.1473595 0.2213484 -0.43078196 -0.19480109 -0.08712508 -0.24542654
-0.13757923 -0.28395608 -0.111941054 0.098633796 -0.19662331 9.833173e-05 0.28910545 0.001263265
0.013095305 -0.016034015 0.09003726 0.21962637 0.27989104 0.18137942 0.30525982 -0.07696622
-0.29012397 -0.023276106 0.3785501 0.18157303 -0.15862986 -0.30871925 -0.45406902 -0.42678618
-0.107742846 0.2621567 0.21586032 -0.37460062 0.26332113 -0.2569798 -0.05227301 -0.1019542
-0.064217 -0.13116428 -0.40465185 -0.36518776 -0.009340013 0.04466995 -0.111045234 0.1851237
-0.27146968 -0.17774145 0.53897804 -0.16223186 0.32970133 0.1795606 -0.4061444 0.26605174
-0.08106793 -0.1352198 0.3114907 -0.21194597 0.07656814 -0.06753673 0.2774684 0.09589239
0.21738549 0.21892047 -0.15360026 -0.031999335 -0.36001417 0.13361105 0.25695503 0.2089358
-0.26269504 -0.034152307 -0.34043923 -0.23681313 -0.1702705 0.15539376 -0.15672117 0.03759577
0.011011355 0.28813207 -0.20854017 -0.25081447 -0.17787485 0.23880129 -0.14777064 0.31083328
0.080228195 0.07439907 -0.009087057 -0.09000604 0.0149709275 -0.13185075 -0.042116 0.011332445
-0.2911715 -0.21584672 0.2858979 -0.2714597 0.0077974233 0.3771432 0.168162 0.05037933
-0.2790633 0.1782118 -0.29094765 -0.08167789 -0.07036482 -0.0063119554 0.057754967 0.33021623
0.0024871468 0.37356937 0.22539735 -0.3119013 0.18673086 -0.33379 -0.17630322 0.14560959
0.0679927 0.28951088 -0.13456407 0.032573797 0.1967093 -0.3992396 0.2729059 -0.3022627
-0.0078362655 -0.03703658 -0.18750131 0.1342532 0.37367633 -0.018546157 -0.14104433 -0.08375445
00000000: 071d bebb 7fe4 523e 9220 a2be 8609 95be
00000010: 3444 9ebd ca65 043e f9dd a43c e458 9f3e
00000020: 45e1 983d 521c 3b3e 0506 b4bd a088 90bd
00000030: 599a a7be 72aa 96be 84eb a0bd c083 aa3d
00000040: 438b 373e 4ab6 813e 0aa9 6abe dfca 0cbe
00000050: 8884 3c3e cb4d af3e c033 e4bc 0590 9b3e
00000060: f919 94bd 69a4 233d 7482 b23e 8bd0 b3be
00000070: c485 74be ebc6 e5bd ec42 5cbe 4b45 a03e
00000080: bcf0 6fbe 9d59 4abe af27 9bbe 80fa a6be
00000090: 2e4a 2cbe 5a1b ad3e 13f2 473e d147 4d3e
000000a0: e51a d73d 731f 16be 3b70 fa3c e4fa b1be
000000b0: 1bdd 64be 1bc1 20be f2af 933e e925 823e
000000c0: 0192 4cbe 17c8 efbc 73fb 783e 8ef0 b93e
000000d0: c174 073e 57fe 313d 6d50 733e 87d6 b7be
000000e0: b1d3 a73d cb90 a5be 1727 a2be 1d5d 32be
000000f0: 6ea1 403e 285b 2c3e 18cf 37be b182 0a3e
00000100: 5f5f c83d 6ecc eabd 4ac9 ac3c 8abe 393d
00000110: 153c 353e d430 9f3e e576 aebe 387d 40be
00000120: 42f2 163e 1dd3 a13e 1fa4 a53e 987b a73e
00000130: 3c08 2f3d 58c1 c1be c46d 4dbc 78e0 8ebe
00000140: b545 c2be dcc6 d33e 48c9 783e 9f6d a7be
00000150: 3d5e b93d 0969 9fbd 3c26 3ebd c822 1fbe
00000160: 34ab de3d 0a67 6ebe 2420 f93d 6ac5 243e
00000170: f1b4 703e f2e1 033e 5c99 c9be a681 8cbe
00000180: 5238 413e d883 bf3d dd93 75be 92c8 6bbe
00000190: 7f19 ba3e b8c2 843e f7c2 12be d76a 89bd
000001a0: 883e 90be 98f9 63bd 813c bebe 7598 95be
000001b0: 47b1 83bc 8b3d 703d 5c7c 00be 2580 643e
000001c0: cd99 78be c4ce d33e 1b28 983e 3e18 a1be
000001d0: 4d01 f5bd ad97 d7bd 2d4e 39bb dd22 503d
000001e0: 235b 503e 5964 003d 69e5 16be 28a9 623e
000001f0: 748f dcbe f079 47be a26e b2bd 1851 7bbe
00000200: 92e1 0cbe b162 91be 5a41 e5bd 8400 ca3d
00000210: 9f57 49be 7237 ce38 a105 943e 2494 a53a
00000220: b18d 563c c459 83bc 7465 b83d bce5 603e
00000230: e14d 8f3e 87bb 393e 044b 9c3e 77a0 9dbd
00000240: 218b 94be 88ad bebc 52d1 c13e 48ee 393e
00000250: de6f 22be 7310 9ebe bc7b e8be b883 dabe
00000260: 48a8 dcbd 6739 863e 7d0a 5d3e a7cb bfbe
00000270: 07d2 863e db92 83be 391c 56bd 5dcd d0bd
00000280: 3484 83bd ee4f 06be 872e cfbe e4f9 babe
00000290: db06 19bc d6f7 363d af6b e3bd 1191 3d3e
000002a0: 13fe 8abe db01 36be 77fa 093f 1c20 26be
000002b0: 9dce a83e bcde 373e 29f2 cfbe ef37 883e
000002c0: f106 a6bd 0f77 0abe b67b 9f3e 5d08 59be
000002d0: c2cf 9c3d b250 8abd 5710 8e3e 3b63 c43d
000002e0: 4d9a 5e3e b02c 603e 6349 1dbe bc11 03bd
000002f0: c753 b8be 56d1 083e 9c8f 833e 44f3 553e
00000300: f77f 86be 4ae3 0bbd 0d4e aebe 247f 72be
00000310: 645b 2ebe 8b1f 1f3e 847b 20be 06fe 193d
00000320: f868 343c 0c86 933e 8e8b 55be c16a 80be
00000330: d324 36be 5388 743e 3051 17be 8a25 9f3e
00000340: ae4e a43d 8a5e 983d e1e1 14bc 1655 b8bd
00000350: 9f48 753c e203 07be d481 2cbd b8ab 393c
00000360: 6e14 95be ec06 5dbe 3661 923e c4fc 8abe
00000370: 8781 ff3b ea18 c13e a932 2c3e 8e5a 4e3d
00000380: 63e1 8ebe 277d 363e 17f7 94be bd46 a7bd
00000390: 6e1b 90bd 85d4 cebb 7990 6c3d 1a12 a93e
000003a0: 66ff 223b 7c44 bf3e 90ce 663e 87b1 9fbe
000003b0: 6036 3f3e 86e6 aabe d588 34be ae1a 153e
000003c0: c23f 8b3d c53a 943e 2acb 09be 1a6c 053d
000003d0: 2a6e 493e 2269 ccbe 52ba 8b3e 2dc2 9abe
000003e0: ae63 00bc abb3 17bd 5800 40be ac79 093e
000003f0: 8152 bf3e 1cee 97bc ed6d 10be 7487 abbd

layers.0.bias f4 [256]
-0.20738482 -0.014825523 -0.23695096 0.17789286 0.0225736 -0.11978661 -0.044152983 -0.020105662
0.28685942 0.34443188 -0.25848436 0.1603601 0.11370189 0.11321072 -0.0546028 0.16868767
0.08021994 0.29016426 -0.31659472 -0.10136591 -0.24846011 -0.17087972 0.0418302 0.21639335
-0.27897817 0.22453009 0.2998818 -0.1971363 0.06449183 -0.15107256 0.118459985 -0.14730395
-0.14501221 -0.20855021 -0.2985035 0.21884626 -0.017558461 0.017456012 -0.12343525 0.2693288
-0.1983609 -0.13893506 -0.2605336 -0.26822215 0.33629978 -0.27120978 0.06904347 -0.083963886
0.1494481 0.073068425 -0.27089077 0.28858268 -0.31591004 0.03683724 0.02464889 -0.11428589
0.20907064 0.3602229 0.06886159 -0.10612727 0.2291099 0.19794448 0.03413096 -0.09259208
-0.008611132 0.3292255 0.089910224 -0.013244238 -0.2711934 -0.18045484 0.208263 -0.0052265325
0.029358651 0.12350501 -0.25568417 -0.02817936 -0.09924922 0.21084408 0.2660548 0.27612153
0.26026872 -0.33002833 -0.09502422 0.07583381 -0.30092683 0.12659103 -0.22488672 0.17097539
0.3098843 -0.32752174 0.28360504 0.18445264 -0.23569982 0.37677824 -0.32367086 -0.20551662
-0.18198177 -0.022223236 0.044108335 -0.06769724 -0.33024082 -0.06016107 0.28383145 0.19403961
0.17266467 0.044675462 0.13753904 -0.27883035 0.13025697 -0.36532718 -0.17636709 -0.10746744
0.22758707 -0.029660448 -0.124517635 0.10040839 -0.3137685 -0.07901795 0.12660088 -0.04745713
0.025645293 0.21386833 -0.19707268 -0.18747133 0.34588003 0.09907751 -0.0674923 0.222606
0.17632361 0.040658843 -0.16887341 -0.08475854 0.1548354 -0.05391014 0.22121073 -0.30722478
-0.16298735 0.23302692 0.07070004 0.103793256 0.1268864 -0.12089028 -0.08289843 0.11673623
-0.13044287 -0.15815082 0.15519387 0.14279935 -0.05931991 -0.23163961 -0.021184564 -0.15548463
0.18893166 -0.24382994 0.2452969 0.2476075 -0.30386242 0.2927282 -0.35237432 -0.028598232
-0.23354036 -0.19439696 -0.026597463 -0.16175726 0.29014474 -0.31399244 0.25242883 0.2073993
0.25426954 -0.11699651 -0.20658344 -0.1405523 0.3148918 -0.19330424 -0.020354731 -0.07365298
0.04084124 -0.2724582 0.35789564 -0.19651529 0.3516074 -0.12801042 -0.015044382 -0.10487836
0.12360817 -0.10812216 -0.3262564 0.22973493 0.32297263 0.1932792 0.34161934 0.1136396
-0.06835698 -0.23419356 -0.27934444 -0.2697699 -0.07878751 0.2353121 -0.16918795 0.037400786
0.01764225 -0.18776086 0.04892115 0.3460631 0.2574416 0.25296533 -0.04954522 0.054749694
0.15000807 -0.040515278 -0.11043008 0.29448974 0.06266986 -0.25204048 0.24937655 -0.0024490724
0.15878691 -0.29445317 0.09037381 0.19348216 -0.0564862 -0.21263212 0.25384694 0.11470014
0.106025085 0.15535192 -0.029108377 0.21827424 0.020674517 -0.20873286 0.16639596 0.055525396
0.10705143 -0.07844468 0.0208887 -0.028452488 0.11585126 -0.26143274 -0.22600986 0.09712726
-0.22581728 -0.02784466 0.16900438 0.05187101 0.18662517 0.0929791 0.11402551 -0.0013770981
0.07271073 0.13691129 0.2408384 -0.31843165 -0.08754124 -0.3421911 -0.1567645 0.22978888
00000000: b05c 54be c0e6 72bc 46a3 72be 8c29 363e
00000010: 45ec b83c af52 f5bd c2d9 34bd a1b4 a4bc
00000020: 3ddf 923e 6059 b03e 1058 84be 7035 243e
00000030: 89dc e83d 06db e73d 30a7 5fbd 76bc 2c3e
00000040: 5a4a a43d 6990 943e b418 a2be ee98 cfbd
00000050: 546c 7ebe 18fb 2ebe 2556 2b3d 3896 5d3e
00000060: 3ad6 8ebe 37eb 653e 1b8a 993e 19de 49be
00000070: 4b14 843d c4b2 1abe 269b f23d d9d6 16be
00000080: 157e 14be 308e 55be 73d5 98be 3c19 603e
00000090: c3d6 8fbc e9ff 8e3c 9fcb fcbd 77e5 893e
000000a0: 1f1f 4bbe fe44 0ebe a964 85be 6a54 89be
000000b0: 7c2f ac3e 02dc 8abe aa66 8d3d 42f5 abbd
000000c0: ec08 193e e6a4 953d 32b2 8abe 1cc1 933e
000000d0: f6be a1be a5e2 163d 78ec c93c b80e eabd
000000e0: 9d16 563e 236f b83e 4e07 8d3d 4159 d9bd
000000f0: c99b 6a3e f5b1 4a3e e8cc 0b3d eba0 bdbd
00000100: b515 0dbc 3f90 a83e da22 b83d 5cfe 58bc
00000110: dcd9 8abe 27c9 38be e542 553e 5543 abbb
00000120: 8e81 f03c 32f0 fc3d 09e9 82be 67d8 e6bc
00000130: 2d43 cbbd 83e7 573e 5638 883e cd5f 8d3e
00000140: f141 853e 79f9 a8be 0f9c c2bd c24e 9b3d
00000150: 1513 9abe 14a1 013e b448 66be 2c14 2f3e
00000160: 28a9 9e3e eeb0 a7be ae34 913e 27e1 3c3e
00000170: 4b5b 71be 14e9 c03e 30b8 a5be f372 52be
00000180: 6e59 3abe 810d b6bc f1aa 343d daa4 8abd
00000190: 5315 a9be 746b 76bd 5b52 913e 52b2 463e
000001a0: 02cf 303e 9efd 363d 09d7 0c3e dac2 8ebe
000001b0: 1562 053e 2a0c bbbe 9399 34be e417 dcbd
000001c0: 960c 693e 78fa f2bc 1a03 ffbd eaa2 cd3d
000001d0: 44a6 a0be 2ad4 a1bd a9a3 013e 6862 42bd
000001e0: 1416 d23c 4d00 5b3e 6ccd 49be 7cf8 3fbe
000001f0: 3017 b13e 26e9 ca3d 6739 8abd d4f2 633e
00000200: 2d8e 343e e389 263d 27ed 2cbe e395 adbd
00000210: 2c8d 1e3e e1d0 5cbd 1185 623e 914c 9dbe
00000220: 28e6 26be 9c9e 6e3e 2fcb 903d 8f91 d43d
00000230: 82ee 013e 5395 f7bd a7c6 a9bd 6813 ef3d
00000240: d192 05be 4af2 21be 24eb 1e3e fe39 123e
00000250: 6ff9 72bd ef32 6dbe 408b adbc 5d37 1fbe
00000260: 4d77 413e 8eae 79be 1c2f 7b3e d28c 7d3e
00000270: db93 9bbe 78e0 953e 686a b4be d746 eabc
00000280: 3425 6fbe ff0f 47be ece2 d9bc b2a3 25be
00000290: da8d 943e 9ec3 a0be 5a3e 813e 7b60 543e
000002a0: 9e2f 823e de9b efbd 9c8a 53be f1ec 0fbe
000002b0: 7f39 a13e 8cf1 45be f7be a6bc 60d7 96bd
000002c0: 2549 273d a47f 8bbe 193e b73e 4e3b 49be
000002d0: e305 b43e 2a15 03be b67c 76bc 77ca d6bd
000002e0: 4826 fd3d 276f ddbd 140b a7be a23f 6b3e
000002f0: ab5c a53e fcea 453e bbe8 ae3e e1bb e83d
00000300: bffe 8bbd 70d0 6fbe 3c06 8fbe 481f 8abe
00000310: 595b a1bd a8f5 703e 9b3f 2dbe 9131 193d
00000320: 7b86 903c 6244 40be 8b61 483d 2f2f b13e
00000330: 63cf 833e ac84 813e eeef 4abd 3741 603d
00000340: b79b 193e 59f3 25bd 2a29 e2bd 5cc7 963e
00000350: 0e59 803d 730b 81be 915c 7f3e 9e80 20bb
00000360: 0999 223e 91c2 96be e715 b93d 3020 463e
00000370: 135e 67bd 3cbc 59be 3af8 813e e8e7 ea3d
00000380: ae23 d93d 9314 1f3e b174 eebc 4883 5f3e
00000390: 9b5d a93c 11be 55be b463 2a3e 996e 633d
000003a0: c83d db3d 9ba7 a0bd c71e ab3c 3115 e9bc
000003b0: 6d43 ed3d 83da 85be 216f 67be a8ea c63d
000003c0: a53c 67be 7c1a e4bc 7c0f 2d3e b276 543d
000003d0: ab1a 3f3e d46b be3d 3586 e93d bf7f b4ba
000003e0: 5de9 943d 7932 0c3e 579e 763e 7909 a3be
000003f0: d248 b3bd ac33 afbe e086 20be c74d 6b3e

layers.2.weight f4 [256, 256]
-0.10934373 -0.05122401 -0.041950665 -0.02868564 -0.0069245673 0.009010988 0.04539275 0.0060316147
-0.041474093 0.07666242 -0.0018865432 0.012579879 -0.00451379 -0.03957999 -0.02019888 0.037337054
-0.060066193 0.05575944 0.043995067 -0.00461555 -0.06771109 -0.034531664 -0.009305481 0.036099397
-0.011685707 0.014020226 0.029910674 -0.09745787 -0.08179757 -0.057957705 0.026562084 0.011964349
-0.08707712 0.0567775 -0.023400534 -0.038179852 0.005620898 0.018139506 -0.007855986 0.068647005
-0.08306993 -0.0130847525 0.0036758739 -0.06408256 0.06520989 -0.080892585 0.020513682 -0.003919897
0.036219757 -0.09920398 -0.057918604 0.00966597 0.0097909765 0.016507111 0.024128042 0.011040832
-0.012772968 0.08401888 0.051172484 -0.031402417 -0.072468854 0.01777244 -0.024904273 -0.037269823
0.07963616 0.018495329 -0.0071032527 -0.032686796 0.051160626 -0.062197663 -0.031237947 0.029263323
0.038332924 -0.007649644 -0.04892913 0.010073697 -0.008846626 0.04735563 -0.0027085887 0.0313016
0.024925403 -0.020085186 0.0029024507 -0.03750407 -0.04643006 0.051065687 -0.004414882 -0.0027960127
-0.016597785 -0.063581064 0.018279988 -0.064480275 0.050984368 0.056150593 -0.0612735 -0.0896883
0.035177857 0.0070871776 -0.06541285 0.066485845 -0.105508514 -0.024562808 -0.019452263 -0.052111413
-0.057230752 -0.019390972 0.031028282 -0.02244893 0.012633318 -0.05980014 -0.0012068036 -0.077330165
-0.05182655 0.01600566 -0.051734313 0.028350612 -0.022342503 -0.059197735 -0.0490482 0.04618802
0.028148191 -0.01201875 -0.07930648 -0.13558434 0.037100162 0.032193154 -0.026368354 0.021926355
-0.026114434 0.023968985 0.012094019 0.044167634 0.04573744 -0.06277068 4.805645e-05 -0.09687861
-0.0032890155 0.0028009762 0.004706863 -0.014421844 -0.0391786 0.034622386 -0.039847504 0.053398512
-0.102835484 -0.061804246 0.033124857 0.10445361 -0.05178896 -0.05319283 0.04920663 -0.035932872
-0.042765826 -0.06596547 0.06800389 0.06715875 0.007549148 0.021196682 -0.02637947 -0.09549951
-0.016602788 0.046424605 -0.008660394 -0.009778383 -0.005950627 0.035749644 0.022469139 -0.052472305
-0.06758937 -0.011708536 0.0054841368 -0.08917196 0.08644232 -0.055802103 -0.059006408 -0.033691972
-0.05951373 -0.026894284 0.06233301 -0.008845925 -0.05984823 0.07809865 0.035905052 0.007247191
-0.029720757 -0.021053506 -0.09251198 0.058516726 0.039181955 0.08460251 -0.038222246 0.03236539
0.013768893 0.035982825 -0.06934554 0.02086898 0.0225077 0.05188114 -0.10934516 0.06932754
-0.030532803 -0.063499786 0.03484775 0.058161784 -0.061218236 0.012785616 -0.042570174 0.017489891
0.050966866 0.037685946 -0.025175694 -0.025803523 0.03223856 -0.100178756 0.033990484 -0.027842265
-0.007221472 -0.016885292 -0.0389343 -0.019258888 -0.022945073 -0.12517229 0.0740879 -0.03740687
-0.007546986 0.011024743 -0.0010945166 -0.020018475 0.13087222 -0.05943696 0.04151986 -0.054892413
-0.04767487 -0.014028679 0.022505088 -0.04226785 0.023396956 -0.06526085 -0.061519686 -0.03526592
-0.116990775 -0.12346043 0.05175305 0.047105864 -0.028767072 0.03303865 -0.0023833155 0.047645118
-0.015357463 -0.009443355 0.062480997 -0.070868626 -0.06306853 -0.14466684 -0.02506612 -0.009817691
00000000: 9bef dfbd 44d0 51bd 76d4 2bbd 26fe eabc
00000010: 7be7 e2bb d3a2 133c c0ed 393d daa4 c53b
00000020: bde0 29bd 3001 9d3d e345 f7ba d61b 4e3c
00000030: 6ae8 93bb a11e 22bd 1f78 a5bc bdee 183d
00000040: f807 76bd 0364 643d 2c34 343d 0a3e 97bb
00000050: 1dac 8abd 1371 0dbd 0476 18bc f6dc 133d
00000060: 6875 3fbc 17b5 653c 3b07 f53c fe97 c7bd
00000070: 7c85 a7bd 0f65 6dbd ba98 d93c 1e06 443c
00000080: 7d55 b2bd 868f 683d 7ab2 bfbc 7a62 1cbd
00000090: 832f b83b 4d99 943c 65b6 00bc cd96 8c3d
000000a0: 9120 aabd 6e61 56bc eee6 703b b83d 83bd
000000b0: c38c 853d 03ab a5bd 4f0c a83c 7b72 80bb
000000c0: 2b5b 143d 752b cbbd 0f3c 6dbd 045e 1e3c
000000d0: 556a 203c ec39 873c 2ca8 c53c 9be4 343c
000000e0: b645 51bc 1712 ac3d 3d9a 513d d29f 00bd
000000f0: 8d6a 94bd 8297 913c 0c04 ccbc 3ea8 18bd
00000100: 4818 a33d 8483 973c 67c2 e8bb 97e2 05bd
00000110: ce8d 513d fac2 7ebd b9e6 ffbc a3b9 ef3c
00000120: fc02 1d3d dda9 fabb e969 48bd 260c 253c
00000130: 70f1 10bc faf7 413d 9482 31bb 1b36 003d
00000140: 5c30 cc3c b089 a4bc 0b37 3e3b de9d 19bd
00000150: 722d 3ebd 412a 513d b7aa 90bb 4f3d 37bb
00000160: 14f8 87bc ca36 82bd eabf 953c 3c0e 84bd
00000170: fcd4 503d 2afe 653d ecf9 7abd 80ae b7bd
00000180: a816 103d 8e3b e83b 2cf7 85bd bb29 883d
00000190: d914 d8bd f137 c9bc 5a5a 9fbc c772 55bd
000001a0: cb6a 6abd d1d9 9ebc 062f fe3c d2e6 b7bc
000001b0: fafb 4e3c fef0 74bd 9c2d 9eba 475f 9ebd
000001c0: 1448 54bd 4d1e 833c 5ce7 53bd 8b3f e83c
000001d0: a007 b7bc 5379 72bd c4e6 48bd a62f 3d3d
000001e0: 0997 e63c 4bea 44bc 706b a2bd 9fd6 0abe
000001f0: 57f6 173d f8dc 033d 7202 d8bc e69e b33c
00000200: f0ed d5bc 9b5a c43c fe25 463c 1fe9 343d
00000210: 2f57 3b3d ea8d 80bd 3890 4938 4b68 c6bd
00000220: 868c 57bb 9590 373b 073c 9a3b 9949 6cbc
00000230: bd79 20bd 34d0 0d3d 2337 23bd 66b8 5a3d
00000240: 699b d2bd 7326 7dbd eead 073d c6eb d53d
00000250: a920 54bd bae0 59bd e48c 493d 592e 13bd
00000260: 382b 2fbd e818 87bd a045 8b3d 878a 893d
00000270: d85e f73b aaa4 ad3c c219 d8bc 3f95 c3bd
00000280: 9202 88bc ba27 3e3d 53e4 0dbc 8335 20bc
00000290: 7afd c2bb 386e 123d 3311 b83c 33ed 56bd
000002a0: 4c6c 8abd 29d5 3fbc 46b4 b33b ca9f b6bd
000002b0: ac08 b13d bf90 64bd b4b0 71bd 9800 0abd
000002c0: abc4 73bd 6751 dcbc e650 7f3d 80ee 10bc
000002d0: 6b23 75bd 2ff2 9f3d 2d11 133d d879 ed3b
000002e0: f278 f3bc 6778 acbc ec76 bdbd 3caf 6f3d
000002f0: 427d 203d 1544 ad3d ee8e 1cbd 9291 043d
00000300: ec96 613c ba62 133d 0905 8ebd 6cf5 aa3c
00000310: 1162 b83c 5181 543d 5bf0 dfbd 99fb 8d3d
00000320: ee1f fabc 2d0c 82bd 84bc 0e3d 0d3b 6e3d
00000330: f9bf 7abd c37a 513c 105e 2ebd f646 8f3c
00000340: a2c2 503d 945c 1a3d 423d cebc e961 d3bc
00000350: 950c 043d 852a cdbd 9b39 0b3d 7615 e4bc
00000360: 19a2 ecbb 0653 8abc 9379 1fbd d1c4 9dbc
00000370: 4ef7 bbbc 2a2d 00be 66bb 973d f237 19bd
00000380: b54c f7bb 20a1 343c e275 8fba c9fd a3bc
00000390: 5e03 063e 2b74 73bd bb10 2a3d ded6 60bd
000003a0: b946 43bd 8bd8 65bc 975c b83c 0e21 2dbd
000003b0: f9aa bf3c 7ba7 85bd 11fc 7bbd ff72 10bd
000003c0: dc98 efbd d2d8 fcbd 02fb 533d 14f2 403d
000003d0: eca8 ebbc 8953 073d 6631 1cbb 8727 433d
000003e0: de9d 7bbc 4db8 1abc 13ec 7f3d 9223 91bd
000003f0: 132a 81bd 8b23 14be 7757 cdbc 61da 20bc

layers.2.bias f4 [256]
0.08111048 0.06020567 -0.0019760556 0.0017378939 -0.02430885 -0.0461277 -0.0561712 -0.21839261
0.047528435 -0.015744189 0.04272816 0.042721525 0.020043211 0.08525312 -0.014958277 -0.046442743
0.04682113 0.026621906 -0.098090485 0.02974265 -0.033834226 0.007938761 -0.0670056 0.020693162
-0.070083484 -0.055622533 0.0847786 -0.0087312395 -0.101822235 -0.042005002 0.06253123 0.033117548
-0.06774939 0.058364186 -0.082232155 0.034495246 0.10780786 0.01614967 -0.11566419 -0.012174251
-0.027041437 -0.034206845 -0.06748681 0.03023989 -0.04412242 -0.04560073 0.003307113 -0.009977767
-0.10731941 -0.05891172 -0.0908595 0.09875789 6.204432e-05 -0.013573087 0.009724001 -0.029410878
0.023318676 -0.014801687 0.028293412 0.04683301 0.042328734 0.032617673 -0.00083947193 -0.069150254
0.005406598 -0.022244208 -0.0042753974 -0.0520091 -0.09540247 0.024375804 -0.04198693 -0.06330094
-0.008282956 -0.008392433 0.0004493782 -0.1310787 -0.10035175 0.0063858368 0.013611947 -0.035730314
-0.019038 0.02033162 0.062211588 -0.02632111 0.05130994 -0.10357128 0.003937169 -0.004092247
-0.0020405692 -0.018005034 -0.04827187 0.022150507 -0.036475636 -0.06448767 -0.052219216 -0.035350524
0.025749967 0.024030207 0.029000657 0.015121934 0.059085816 -0.044595003 0.051148027 0.021725763
-0.042375512 -0.056765858 0.050560568 -0.053066295 -0.028893383 -0.0062502474 -0.020104507 -0.05943588
-0.0100365495 -0.14013635 0.014949719 -0.05303496 -0.06341762 -0.016095903 0.02241691 -0.010818059
-0.08270238 0.04110647 0.028714955 0.008828164 -0.026562238 -0.007175066 -0.04642798 0.09494002
-0.010261528 -0.065832146 0.011419611 -0.040081467 -0.11541498 0.08107805 0.06374653 0.009600951
0.035187624 -0.026886148 -0.051171545 -0.08032771 -0.015354049 0.06272871 0.009198798 0.00032072983
0.028146172 -0.007161093 -0.04188303 0.0018226773 0.052336942 -0.034308836 0.073789805 0.033894297
-0.02762767 -0.077997416 -0.031917974 0.05762704 -0.048419766 -0.06651442 -0.046880126 -0.08644579
-0.006134486 -0.060435772 -0.08187213 -0.04926415 0.09515934 -0.0074323458 0.039823227 -0.01730656
0.030829402 -0.04051949 0.039504282 -0.046568714 -0.026660724 -0.077380784 0.09607096 0.0070752297
-0.0060000466 0.100914925 -0.0014702243 0.09893676 -0.08480185 -0.04797512 -0.0690522 -0.051441025
0.0002894147 -0.02942871 -0.069472186 -0.04010304 0.0006524676 -0.038750187 0.04875505 -0.05665487
0.033673417 0.007922727 0.07650722 0.026612736 0.0053147846 -0.07604997 0.015292412 0.020613782
0.0022194262 0.05913853 0.055780526 0.06394508 0.019771913 -0.0018862179 -0.032810323 -0.032805197
-0.10483968 -0.036999766 -0.0839033 0.03045342 -0.052282915 -0.08642546 0.024593856 0.009305099
0.08531394 -0.04338385 -0.09566798 -0.08035025 0.06505707 -0.014657198 -0.00650491 -0.029445998
-0.07306752 0.07271674 0.014815499 0.0022647837 -0.025336485 0.008166608 0.019230237 0.06481463
0.061684225 0.04763064 0.05226354 0.033651866 -0.052804805 -0.10108332 0.03646633 0.00013046256
0.030180905 -0.05409815 0.024260418 0.0367269 0.019774219 0.045512088 0.093076065 -0.071666464
-0.020679256 0.059492327 -0.03201089 -0.09645072 0.07671415 -0.04227586 -0.0073357765 0.009668137
00000000: 401d a63d 389a 763d b680 01bb 0bca e33a
00000010: 5a23 c7bc 66f0 3cbd c613 66bd 50a2 5fbe
00000020: 2dad 423d f5f9 80bc b903 2f3d c4fc 2e3d
00000030: a931 a43c 3099 ae3d 9013 75bc bf3a 3ebd
00000040: 83c7 3f3d 2f16 da3c aae3 c8bd dca6 f33c
00000050: c295 0abd 9411 023c 3b3a 89bd b584 a93c
00000060: ee87 8fbd 74d4 63bd 67a0 ad3d 790d 0fbc
00000070: 2d88 d0bd 700d 2cbd 6010 803d 44a6 073d
00000080: 31c0 8abd 490f 6f3d 5569 a8bd e34a 0d3d
00000090: 5eca dc3d 504c 843c 59e1 ecbd 8276 47bc
000000a0: 0186 ddbc 7a1c 0cbd 8636 8abd a5b9 f73c
000000b0: b6b9 34bd d5c7 3abd 26bc 583b ca79 23bc
000000c0: 47ca dbbd 6a4d 71bd 8c14 babd 9441 ca3d
000000d0: ca1d 8238 a761 5ebc 6b51 1f3c 15ef f0bc
000000e0: cf06 bf3c c682 72bc 96c7 e73c f8d3 3f3d
000000f0: e560 2d3d 1c9a 053d 0210 5cba a69e 8dbd
00000100: d529 b13b 7c39 b6bc a218 8cbb 7e07 55bd
00000110: 5f62 c3bd c4af c73c 7dfa 2bbd eca3 81bd
00000120: 3cb5 07bc 6a80 09bc 859a eb39 7f39 06be
00000130: 3885 cdbd 4840 d13b a504 5f3c f359 12bd
00000140: 94f5 9bbc 7f8e a63c 94d1 7e3d 5e9f d7bc
00000150: 5f2a 523d 2e1d d4bd 5e03 813b 4218 86bb
00000160: 12bb 05bb 4b7f 93bc b9b8 45bd fb74 b53c
00000170: 7a67 15bd 1d12 84bd d1e3 55bd b6cb 10bd
00000180: 98f1 d23c ffda c43c c992 ed3c fdc1 773c
00000190: f803 723d 40a9 36bd 9880 513d 3afa b13c
000001a0: f291 2dbd 5183 68bd 9918 4f3d 0b5c 59bd
000001b0: d1b1 ecbc e0ce ccbb 35b2 a4bc 0a73 73bd
000001c0: 5770 24bc e77f 0fbe abef 743c 303b 59bd
000001d0: 19e1 81bd 8edb 83bc aba3 b73c 3a3e 31bc
000001e0: de5f a9bd 425f 283d a03b eb3c 01a4 103c
000001f0: 0d99 d9bc d11c ebbb 442b 3ebd ea6f c23d
00000200: f81f 28bc 01d3 86bd 5219 3b3c 772c 24bd
00000210: b05e ecbd 400c a63d 8a8d 823d 4f4d 1d3c
00000220: e620 103d 5740 dcbc 4199 51bd db82 a4bd
00000230: 8d8f 7bbc e977 803d 8eb6 163c a127 a839
00000240: cd92 e63c 9aa7 eabb 8a8d 2bbd e7e6 ee3a
00000250: 435f 563d 6c87 0cbd 1c1f 973d bfd4 0a3d
00000260: 6c53 e2bc 1cbd 9fbd 6cbc 02bd 550a 6c3d
00000270: ce53 46bd b638 88bd 6005 40bd 7e0a b1bd
00000280: cc03 c9bb 808b 77bd 93ac a7bd 35c9 49bd
00000290: e6e2 c23d 098b f3bb ae1d 233d 7dc6 8dbc
000002a0: f18d fc3c c4f7 25bd 3ecf 213d d6be 3ebd
000002b0: 9767 dabc d179 9ebd dac0 c43d 54d7 e73b
000002c0: 0a9c c4bb 7cac ce3d 8bb4 c0ba 5b9f ca3d
000002d0: 98ac adbd 8f81 44bd 3d6b 8dbd d3b3 52bd
000002e0: 95bc 9739 7a14 f1bc 6f47 8ebd 1643 24bd
000002f0: 5c0a 2b3a 84b8 1ebd 60b3 473d f00e 68bd
00000300: 23ed 093d 53ce 013c d1af 9c3d f402 da3c
00000310: a527 ae3b 16c0 9bbd 068d 7a3c 3cde a83c
00000320: cb73 113b 3e3b 723d 1f7a 643d a3f5 823d
00000330: b5f8 a13c f83a f7ba 1e64 06bd be5e 06bd
00000340: 30b6 d6bd 118d 17bd 7ed5 abbd 7379 f93c
00000350: 9c26 56bd d5ff b0bd 0e79 c93c 6a74 183c
00000360: 13b9 ae3d 44b3 31bd 93ed c3bd ac8e a4bd
00000370: a43c 853d bf24 70bc 2427 d5bb bc38 f1bc
00000380: 6da4 95bd 84ec 943d b5bc 723c c46c 143b
00000390: 768e cfbc 3dcd 053c bb88 9d3c 88bd 843d
000003a0: 99a8 7c3d 5918 433d 4b12 563d 8ad6 093d
000003b0: da49 58bd c604 cfbd b85d 153d c7cc 0839
000003c0: f23d f73c 0696 5dbd c9bd c63c f26e 163d
000003d0: 8bfd a13c e26a 3a3d aa9e be3d dec5 92bd
000003e0: 8b67 a9bc 3aae 733d da1d 03bd f587 c5bd
000003f0: 4f1c 9d3d 7429 2dbd f460 f0bb 1b67 1e3c

layers.4.weight f4 [128, 256]
-0.0069804643 0.075065784 -0.036467403 0.03189551 0.020131903 0.029535457 0.04683518 -0.07942006
-0.07575379 0.004238415 -0.06701001 -0.1274586 0.040200885 -0.12412521 -0.019260252 -0.12890802
-0.046566363 0.13178508 0.12546526 -0.03204379 -0.010488334 0.03405643 0.077814735 0.0015346615
0.0028537884 0.021862855 -0.020789647 -0.11845842 0.017120725 0.00012446659 0.011910426 -0.11073907
0.011688253 0.038706798 -0.02815816 0.0069576283 -0.022128267 -0.03869717 0.010838945 0.023863822
0.055634473 0.054837752 0.037941575 0.04412836 0.043325216 -0.03244336 0.07795183 0.00782212
0.027124802 -0.0041785855 0.060609885 -0.049877945 0.071513236 0.025542993 -0.076603614 0.034473322
-0.031646326 0.03355926 -0.05924901 -0.00064015784 -0.06261159 -0.11338588 0.06753882 -0.05961675
0.10714026 -0.022377258 0.0064804833 0.010957352 -0.021329362 0.0909183 0.07086644 0.16579618
0.01751024 0.056239553 0.05902372 0.079138525 -0.05788125 0.036888752 -0.028232045 0.019579036
0.03226175 -0.07247917 0.050623786 -0.047732897 -0.05484073 -0.031514972 0.033769373 0.0017733801
0.003081432 0.0009002437 0.03102003 0.08739646 -0.07116571 0.08375826 0.052652545 -0.02785595
0.10131492 -0.20308492 -0.041011617 -0.01792053 -0.05433407 0.07226282 -0.08349186 -0.04195733
-0.05991253 -0.018305508 -0.10343113 -0.027144242 0.06825489 0.048502088 -0.029304586 0.027395085
-0.101392016 -0.007342131 0.018028349 -0.0009463784 0.028026637 -0.014571755 -0.024907922 0.034048222
0.07921268 -0.09997112 0.029779395 0.024725514 0.051740576 -0.0195111 0.004275133 0.052005988
0.06618891 0.03706782 -0.04373818 0.13765125 0.07185752 0.007971289 -0.0072587524 -0.0469051
-0.034486208 -0.007974964 0.009527883 -0.013638281 0.010496787 -0.06319835 -0.007689756 -0.07369549
0.015556057 -0.115305424 0.0502599 0.047194876 -0.08411376 0.08767017 -0.10308483 -0.05191199
-0.102620974 0.00528873 -0.03065772 -0.07418909 -0.09137103 0.0003667905 0.078697234 0.0997101
-0.0065898625 -0.0059178798 0.062795445 0.040910292 -0.09864803 0.08050137 0.012256671 0.07623924
-0.02962329 -0.061804272 -0.03222093 0.049744185 0.036243718 -0.042067487 0.025767758 0.0032766678
-0.02633881 -0.054588918 0.034027725 0.026043652 -0.001938676 0.058631428 0.046233356 0.08040968
-0.064683884 0.07709826 -0.026215762 0.06369333 -0.011757535 -0.033219215 -0.09967368 0.032382116
0.029396579 -0.15081316 -0.03215187 -0.0012135938 -0.081199504 0.052497588 -0.032854404 -0.042670596
-0.0081656175 -0.06441563 -0.060736533 0.0004930854 -0.06437699 0.04267194 -0.042208195 0.0075849807
0.09638206 0.0012395582 -0.017653286 -0.14535491 0.06301375 0.03148911 -0.029836413 0.044096675
-0.049938813 0.08898957 0.04711033 -0.030218381 -0.044670336 -0.012925876 -0.07403759 -0.024060965
0.053905055 -0.015460659 0.068472266 0.033431377 -0.034313433 0.00902395 -0.27251822 -0.009814733
0.030693788 -0.050520692 -0.003169126 0.037287455 0.027343024 0.00419757 -0.11868978 0.06857171
-0.051973157 0.032431602 0.05149521 -0.028404009 -0.00060888653 0.10369846 -0.053945687 0.077300645
0.029055353 -0.08110622 0.08125604 -0.00094225106 -0.05937811 -0.046210278 0.0823406 -0.05814768
00000000: 61bc e4bb 17bc 993d d85e 15bd dea4 023d
00000010: a9eb a43c 58f4 f13c 3fd6 3f3d fca6 a2bd
00000020: ce24 9bbd 67e2 8a3b 8b3c 89bd 8284 02be
00000030: afa9 243d 5c35 febd adc7 9dbc 7700 04be
00000040: 5fbc 3ebd abf2 063e f779 003e 5940 03bd
00000050: 43d7 2bbc c17e 0b3d 555d 9f3d b226 c93a
00000060: a006 3b3b bb19 b33c 0d4f aabc 549a f2bd
00000070: c340 8c3c 3f83 0239 f323 433c 2acb e2bd
00000080: 1680 3f3c 058b 1e3d f1ab e6bc d1fc e33b
00000090: 5746 b5bc ec80 1ebd d595 313c 107e c33c
000000a0: f9e0 633d 8d9d 603d a068 1b3d f0bf 343d
000000b0: c875 313d 54e3 04bd 36a5 9f3d 5928 003c
000000c0: d534 de3c 84ec 88bb 1242 783d d14c 4cbd
000000d0: 8875 923d 8a3f d13c 5be2 9cbd e633 0d3d
000000e0: 949f 01bd 6f75 093d 17af 72bd 44d0 27ba
000000f0: 813a 80bd db36 e8bd cb51 8a3d b130 74bd
00000100: 5a6c db3d 8350 b7bc 3c5a d43b 7786 333c
00000110: eaba aebc 6033 ba3d 6d22 913d 79c6 293e
00000120: a371 8f3c 725b 663d dbc2 713d 6113 a23d
00000130: e414 6dbd a918 173d e446 e7bc 3764 a03c
00000140: e624 043d f66f 94bd e35a 4f3d 9283 43bd
00000150: aca0 60bd d815 01bd c151 0a3d c370 e83a
00000160: daf1 493b 55fe 6b3a b81d fe3c eafc b23d
00000170: 54bf 91bd 7389 ab3d 32aa 573d 2932 e4bc
00000180: 327e cf3d 7ef5 4fbe ccfb 27bd 13ce 92bc
00000190: 678d 5ebd 88fe 933d c8fd aabd 73db 2bbd
000001a0: d766 75bd 6ff5 95bc b3d3 d3bd 9a5d debc
000001b0: 38c9 8b3d 20aa 463d 2c10 f0bc a86b e03c
000001c0: 9ea6 cfbd 4296 f0bb 30b0 933c 6116 78ba
000001d0: 1e98 e53c 5fbe 6ebc b30b ccbc 2676 0b3d
000001e0: 423a a23d a9bd ccbd ebf3 f33c 298d ca3c
000001f0: eded 533d bed5 9fbc 6a16 8c3b 3b04 553d
00000200: 0d8e 873d 6dd4 173d ce26 33bd 73f4 0c3e
00000210: 092a 933d 029a 023c d4da edbb 901f 40bd
00000220: 6941 0dbd 6ca9 02bc d61a 1c3c 1973 5fbc
00000230: b7fa 2b3c 236e 81bd 59fa fbbb a9ed 96bd
00000240: d5de 7e3c 4025 ecbd 53dd 4d3d 6a4f 413d
00000250: d643 acbd 6b8c b33d 241e d3bd aba1 54bd
00000260: f22a d2bd 154d ad3b e625 fbbc 73f0 97bd
00000270: bc20 bbbd ca4d c039 042c a13d cf34 cc3d
00000280: c6ef d7bb c6ea c1bb e69a 803d 8d91 273d
00000290: fa07 cabd e7dd a43d 34d0 483c 5223 9c3d
000002a0: 8bac f2bc 7a26 7dbd 18fa 03bd 8fc0 4b3d
000002b0: 4b74 143d f54e 2cbd e816 d33c 5dbd 563b
000002c0: 7dc4 d7bc a198 5fbd a860 0b3d 7f59 d53c
000002d0: 2c1b feba 8227 703d 305f 3d3d d5ad a43d
000002e0: fc78 84bd b1e5 9d3d 70c2 d6bc a671 823d
000002f0: ada2 40bc df10 08bd b721 ccbd 1ca3 043d
00000300: 18d1 f03c c46e 1abe aeb1 03bd 7311 9fba
00000310: ed4b a6bd b607 573d 5792 06bd 5dc7 2ebd
00000320: 15c9 05bc 58ec 83bd dfc6 78bd 6742 013a
00000330: 15d8 83bd c6c8 2e3d 80e2 2cbd 6e8b f83b
00000340: f563 c53d ac78 a23a a09d 90bc ebd7 14be
00000350: 5a0d 813d bafa 003d 7e6b f4bc b79e 343d
00000360: a48c 4cbd 2a40 b63d c3f6 403d 8a8c f7bc
00000370: 3ef8 36bd 0ec7 53bc 05a1 97bd 801b c5bc
00000380: 8ccb 5c3d b44e 7dbc 303b 8c3d 57ef 083d
00000390: 3e8c 0cbd 31d9 133c 8287 8bbe f9cd 20bc
000003a0: 8a71 fb3c c9ee 4ebd 1db1 4fbb bbba 183d
000003b0: 7afe df3c c58b 893b a113 f3bd 536f 8c3d
000003c0: cee1 54bd 00d7 043d a4ec 523d 86af e8bc
000003d0: af9d 1fba dc5f d43d 27f6 5cbd cd4f 9e3d
000003e0: 7e05 ee3c 051b a6bd 9169 a63d 6601 77ba
000003f0: 7636 73bd fd46 3dbd 30a2 a83d 432c 6ebd

layers.4.bias f4 [128]
-0.06528116 0.059306636 0.023935461 -0.023997001 0.041331366 0.04313278 0.041160777 -0.1280836
0.06045652 0.06771956 0.06835584 -0.04267164 0.06292446 0.027125815 -0.07815261 0.021521354
-0.02659294 -0.046105634 0.014081511 0.08421017 -0.03475095 0.007422604 0.04728436 -0.018085364
-0.09856185 -0.14028488 -0.049282968 0.037402473 -0.16408414 -0.072300635 0.048606437 -0.050434865
-0.068473436 0.052302647 0.09091636 -0.11676741 -0.07351891 -0.011848697 -0.051718924 -0.08310139
0.03058536 -0.090477675 0.04738354 -0.07932213 -0.12841615 0.054933347 -0.008080535 -0.15465026
0.060335916 -0.047264926 0.09038561 -0.015719904 0.019620448 0.021516798 -0.053744666 -0.16525778
-0.0012835356 -0.035944536 0.004334611 -0.017786646 -0.036863934 0.011916193 -0.011063884 -0.06651088
0.037882593 0.058215067 -0.10820249 0.0661233 0.0284155 -0.07707763 -0.0043773185 0.042928685
0.049186304 -0.06937202 0.02023133 -0.031438183 -0.05350466 -0.053487636 0.00904457 0.055401545
-0.026509339 0.022637691 0.077904575 -0.061522495 0.08006474 -0.026350033 0.030572016 -0.034255836
-0.0018167772 -0.08759728 0.03165542 -0.035137683 -0.074123 -0.08045258 0.056153 -0.02224493
0.024502823 -0.0034332522 0.02873206 0.0071663554 0.037983578 -0.07734745 -0.01756743 -0.0030494276
-0.11703124 0.00041866297 0.041688904 0.05759631 0.020204302 0.05393191 -0.052247748 -0.030464781
-0.03019825 -0.04138727 -0.002426483 0.020158606 0.0217587 0.069221206 0.060333572 0.039830096
0.034319296 0.04453766 -0.111078 0.055787746 0.0048282105 0.046101283 0.005954192 0.084851205
00000000: 21b2 85bd 84eb 723d 4d14 c43c 5c95 c4bc
00000010: 144b 293d ffab 303d 3498 283d 5928 03be
00000020: 42a1 773d 8db0 8a3d 26fe 8b3d 75c8 2ebd
00000030: 8ade 803d f536 de3c 7a0e a0bd 8d4d b03c
00000040: 70d9 d9bc 43d9 3cbd 23b6 663c 6276 ac3d
00000050: 0357 0ebd 5139 f33b 3fad 413d c227 94bc
00000060: ccda c9bd d7a6 0fbe f0dc 49bd 5633 193d
00000070: ac05 28be 5b12 94bd 8b17 473d ca94 4ebd
00000080: cd3b 8cbd 4d3b 563d 5b32 ba3d c023 efbd
00000090: 1591 96bd 0a21 42bc 39d7 53bd 1031 aabd
000000a0: 268e fa3c 5c4c b9bd 3e15 423d a473 a2bd
000000b0: 867f 03be ca01 613d 3864 04bc a35c 1ebe
000000c0: cb22 773d de98 41bd 171c b93d 07c7 80bc
000000d0: 10bb a03c ff43 b03c 5e23 5cbd 5639 29be
000000e0: 4f3c a8ba 943a 13bd 5a09 8e3b 4db5 91bc
000000f0: a3fe 16bd 233c 433c 4b45 35bc db36 88bd
00000100: c72a 1b3d ec72 6e3d 4499 ddbd a76b 873d
00000110: 9fc7 e83c e0da 9dbd 9c6f 8fbb fdd5 2f3d
00000120: 9477 493d eb12 8ebd 2dbc a53c 53c5 00bd
00000130: b427 5bbd da15 5bbd ad2f 143c bbec 623d
00000140: 1d2a d9bc ae72 b93c 6f8c 9f3d 03ff 7bbd
00000150: fbf8 a33d 06dc d7bc 2a72 fa3c d94f 0cbd
00000160: ed20 eeba 3466 b3bd 1da9 013d 88ec 0fbd
00000170: cdcd 97bd 52c4 a4bd b000 663d 003b b6bc
00000180: 25ba c83c 6a00 61bb 7f5f eb3c bfd3 ea3b
00000190: ab94 1b3d 5768 9ebd 92e9 8fbc e8d8 47bb
000001a0: 13ae efbd fe7f db39 fcc1 2a3d 1cea 6b3d
000001b0: 7e83 a53c b5e7 5c3d bc01 56bd 4791 f9bc
000001c0: 5262 f7bc b385 29bd a105 1fbb a923 a53c
000001d0: 4d3f b23c d9c3 8d3d 5620 773d e224 233d
000001e0: 6492 0c3d 1f6d 363d dd7c e3bd b181 643d
000001f0: f735 9e3b b3d4 3c3d 621b c33b 78c6 ad3d

layers.6.weight f4 [128, 128]
0.049002945 -0.12286327 0.06723992 0.093411736 0.082435384 0.06197386 0.0027900003 -0.021025192
0.03313313 0.0955962 -0.10655675 -0.02057842 -0.03654658 -0.02200883 0.081432 -0.10022628
0.027717736 0.07782592 -0.1005252 -0.124040715 0.101244524 0.017577127 -0.13168123 -0.12791872
0.07108751 0.048273616 0.073139645 0.20986056 -0.05531822 -0.2219782 -0.06528104 0.12567627
-0.0943832 -0.120901704 -0.2774784 0.047369067 0.11078891 0.033871528 0.1216746 -0.032632712
0.086244375 0.07319861 0.114712246 0.026140584 0.09156635 0.026639756 -0.06289928 0.09908613
-0.18528125 0.042987105 -0.00034773914 0.04940788 -0.0011695724 -0.05469657 0.053375557 0.1460592
-0.019556943 -0.093751796 -0.09312292 -0.0412634 0.18981364 -0.08431024 -0.06301076 0.14269112
-0.042609256 -0.059071794 0.11558312 -0.1603122 0.01195204 -0.028168406 0.04157589 -0.1097167
0.064731434 0.029412663 -0.02817276 -0.0054322723 -0.05796005 0.04664432 0.11784001 0.08128937
-0.049138393 0.06602425 -0.053443845 -0.01936449 -0.06528167 0.04370701 0.13649142 0.02549538
-0.0048391325 0.094634406 0.022684734 -0.11585385 -0.041120008 0.12232041 -0.07553817 0.014498584
0.019229224 0.03677756 0.09943357 0.040308923 0.09962631 0.04342358 -0.020396547 -0.19658722
0.023369813 -0.15061492 0.10860163 -0.15426193 -0.15510374 0.05072523 -0.0024177004 -0.16839595
0.048650287 0.008997834 0.017490955 -0.0048680194 -0.11183945 -0.03828713 0.09664338 0.031005066
-0.14228609 -0.074418105 0.0197282 -0.004495054 -0.14041696 -0.048570484 0.00500671 0.0016943985
-0.08470457 0.10037944 0.32713154 -0.014142803 0.22472233 3.3171225e-05 0.062237155 -0.14090852
-0.1749647 0.06446844 -0.08273335 -0.121455364 0.020134093 -0.04594401 -0.023769729 0.06514301
-0.022232417 -0.08406213 -0.015340604 0.050132573 0.043215536 0.12310406 -0.045938846 -0.023488801
-0.024789145 -0.18056354 0.1830163 0.013853501 0.19190909 0.0825178 0.10880734 0.077230655
-0.06507248 0.0021214648 -0.25228837 0.14240289 -0.1184229 -0.12687364 -0.054414492 0.07848716
-0.13540554 0.21281762 0.11999814 0.004660979 0.04261302 0.003803076 -0.03370206 -0.07376682
-0.12880974 0.15732524 0.032932557 -0.0068951957 -0.06268015 0.10527203 -0.07632325 0.19892551
0.12053093 -0.019976674 0.04471363 0.07948288 -0.118639626 0.13946906 0.014558681 0.0117147295
-0.14345518 0.0077715646 0.036635954 0.022406423 0.04569548 -0.10009271 0.045662835 0.15554501
-0.040634017 -0.050501317 -0.0318898 0.096711844 0.012948848 0.12822388 -0.09979201 -0.08682625
-0.021254681 0.022646422 -0.107901074 0.035950862 -0.045301903 -0.13678971 -0.11449764 -0.0040463055
0.013261228 0.2937451 0.041037884 0.119986236 0.21684648 -0.0014431583 -0.082449876 0.080683656
0.027597405 -0.028521793 -0.11427818 -0.0111483075 -0.12628579 0.061516333 0.013415925 -0.14463174
0.27752292 -0.014791429 -0.0009571814 -0.099339046 0.05831872 0.11145795 -0.043455146 0.057808846
0.08285149 0.05479468 -0.022192918 -0.0087900385 -0.07476445 -0.032760758 0.020537127 -0.078082554
0.1343099 -0.022498429 0.2567997 0.10251855 0.025522633 -0.0029505831 0.021014335 -0.17933334
00000000: 50b7 483d bd9f fbbd 15b5 893d a74e bf3d
00000010: e2d3 a83d 4dd8 7d3d 70d8 363b 063d acbc
00000020: 9bb6 073d f1c7 c33d 6d3a dabd 1394 a8bc
00000030: deb1 15bd dd4b b4bc d2c5 a63d 7043 cdbd
00000040: 4e10 e33c 3263 9f3d 28e0 cdbd 0f09 febd
00000050: 4a59 cf3d e8fd 8f3c 72d7 06be 20fd 02be
00000060: 5496 913d 8eba 453d 3dca 953d b0e5 563e
00000070: 5c95 62bd 414e 63be 11b2 85bd 48b1 003e
00000080: fb4b c1bd 509b f7bd a611 8ebe 1106 423d
00000090: 4ce5 e23d dfbc 0a3d 8830 f93d e1a9 05bd
000000a0: e4a0 b03d 27e9 953d 41ee ea3d c724 d63c
000000b0: 2387 bb3d 9e3b da3c 56d1 80bd abed ca3d
000000c0: 5eba 3dbe 3f13 303d c250 b6b9 eb5f 4a3d
000000d0: 564c 99ba 8309 60bd 54a0 5a3d 8b90 153e
000000e0: e235 a0bc f100 c0bd 3bb7 bebd d003 29bd
000000f0: 825e 423e d9aa acbd c90b 81bd 9f1d 123e
00000100: 0b87 2ebd 44f5 71bd d8b6 ec3d e228 24be
00000110: 7dd2 433c 6ec1 e6bc 7b4b 2a3d 26b3 e0bd
00000120: ea91 843d d3f2 f03c 8fca e6bc 3401 b2bb
00000130: 8467 6dbd 1d0e 3f3d 1a56 f13d 0b7b a63d
00000140: 5745 49bd b937 873d efe7 5abd 47a2 9ebc
00000150: 65b2 85bd 1f06 333d 68c4 0b3e b0db d03c
00000160: 9691 9ebb afcf c13d 56d5 b93c c944 edbd
00000170: 746d 28bd 2083 fa3d c2b3 9abd 788b 6d3c
00000180: 9b86 9d3c 11a4 163d d4a3 cb3d f81a 253d
00000190: e108 cc3d ecdc 313d a916 a7bc 294e 49be
000001a0: 0d72 bf3c cc3a 1abe 886a de3d d7f6 1dbe
000001b0: 84d3 1ebe 42c5 4f3d 4872 1ebb fd6f 2cbe
000001c0: 8645 473d a76b 133c 3149 8f3c e883 9fbb
000001d0: 150c e5bd f7d2 1cbd f7ec c53d 56fe fd3c
000001e0: 72b3 11be 8568 98bd 099d a13c 3f4b 93bb
000001f0: 77c9 0fbe d8f1 46bd 540f a43b 9416 de3a
00000200: 9779 adbd bc93 cd3d c97d a73e 37b7 67bc
00000210: 9c1d 663e 5521 0b38 63ec 7e3d 534a 10be
00000220: f229 33be 0808 843d 1a70 a9bd 97bd f8bd
00000230: 41f0 a43c c92f 3cbd bcb8 c2bc b369 853d
00000240: c220 b6bc c428 acbd 2857 7bbc d057 4d3d
00000250: c602 313d fb1d fc3d 5f2a 3cbd 966b c0bc
00000260: 9b12 cbbc a6e5 38be a068 3b3e cbf9 623c
00000270: d183 443e 18ff a83d 62d6 de3d 1b2b 9e3d
00000280: b844 85bd 4608 0b3b f12b 81be 10d2 113e
00000290: b587 f2bd 2aeb 01be bbe1 5ebd e0bd a03d
000002a0: c0a7 0abe ddec 593e 96c1 f53d 20bb 983b
000002b0: fd8a 2e3d 073d 793b 2c0b 0abd 0f13 97bd
000002c0: b3e6 03be de19 213e 4ae4 063d 18f1 e1bb
000002d0: 735e 80bd dd98 d73d 5d4f 9cbd 21b3 4b3e
000002e0: ecd8 f63d 1fa6 a3bc a425 373d ecc7 a23d
000002f0: 55f9 f2bd fad0 0e3e 8987 6e3c 23ef 3f3c
00000300: eae5 12be 9ca8 fe3b 950f 163d ad8d b73c
00000310: 2f2b 3b3d 68fd ccbd f408 3b3d 3147 1f3e
00000320: db6f 26bd 78da 4ebd e19e 02bd dc10 c63d
00000330: 6827 543c 1f4d 033e c15f ccbd f6d1 b1bd
00000340: 4c1e aebc fd84 b93c 3dfb dcbd 3641 133d
00000350: 7d8e 39bd 9a12 0cbe bd7d eabd df96 84bb
00000360: 9f45 593c c265 963e 5717 283d 58bb f53d
00000370: 010d 5e3e 5b28 bdba 7bdb a8bd 793d a53d
00000380: f413 e23c 89a6 e9bc ae0a eabd 64a7 36bc
00000390: 1051 01be 8df8 7b3d 78ce 5b3c 581a 14be
000003a0: 7c17 8e3e c057 72bc 5beb 7aba 4572 cbbd
000003b0: 9cdf 6e3d 1144 e43d 06fe 31bd f8c8 6c3d
000003c0: 0bae a93d 6370 603d eccd b5bc 1804 10bc
000003d0: 1b1e 99bd 2530 06bd 7a3d a83c bfe9 9fbd
000003e0: 8988 093e a04e b8bc 407b 833e 3ff5 d13d
000003f0: d714 d13c 925e 41bb 4126 ac3c 29a3 37be

layers.6.bias f4 [128]
0.04242192 -0.12997983 -0.14289954 -0.16324475 0.022889027 -0.023300376 0.080357194 0.054933906
0.11608039 0.038929027 0.10012309 -0.085106075 -0.043207433 0.0014793961 -0.08905412 0.12224823
-0.11582933 0.10016082 -0.0074582794 -0.080141895 0.07639136 0.03447943 0.008253637 0.10163808
0.08857923 -0.08290029 -0.029940864 -0.101737335 -0.0261782 -0.039376188 0.046321623 0.073090516
-0.044837452 -0.08508066 0.017459108 0.09256733 -0.03182895 -0.060675588 0.088721484 0.05911541
0.092000775 0.08931089 0.09245505 -0.06266515 -0.015539616 -0.04614978 -0.12003994 -0.049510803
0.06553093 -0.022251563 -0.04081666 -0.0071535413 0.0071269595 -0.011384276 -0.03497051 -0.022175984
0.08972209 -0.0489765 0.08166906 0.08262539 0.034143176 0.08007346 -0.092413 0.09237448
-0.016490579 0.104959585 0.09309192 0.0004873458 0.02782808 -0.109366976 0.09755876 -0.15535608
-0.05922867 0.012730842 0.096346185 -0.069349036 -0.14908446 0.040763807 -0.052564792 -0.0096119
-0.08591696 0.054361574 -0.033307403 -0.015452101 0.09457016 0.072834864 -0.060099047 0.10501675
-0.11046251 -0.11468665 -0.040920015 -0.047623903 0.10081054 0.015184872 0.0031453806 -0.06965585
-0.06934811 -0.0386669 0.011764909 0.08782253 0.026339458 0.040801715 -0.019082258 0.06231608
-0.089327976 -0.020987509 -0.028564934 -0.082338445 -0.036064416 0.04190348 0.016121345 -0.029857859
0.102405615 -0.06620953 0.08789104 -0.06714579 -0.00010416299 -0.086085856 0.077758804 0.016690647
0.08924217 0.014833902 -0.05137643 0.031289496 0.08636762 0.08389204 0.048696946 -0.0067002843
00000000: 9bc2 2d3d 6f19 05be 4254 12be a229 27be
00000010: c581 bb3c 6ee0 bebc 5092 a43d 6002 613d
00000020: 8ebb ed3d 0b74 1f3d 560d cd3d 184c aebd
00000030: 47fa 30bd 4ce8 c13a 0262 b6bd 485d fa3d
00000040: ee37 edbd 1e21 cd3d 9564 f4bb 6f21 a4bd
00000050: 1373 9c3d 4e3a 0d3d 433a 073c a027 d03d
00000060: 0769 b53d a1c7 a9bd 8b46 f5bc aa5b d0bd
00000070: aa73 d6bc ed48 21bd bebb 3d3d 7bb0 953d
00000080: 7aa7 37bd c53e aebd 6706 8f3c f193 bd3d
00000090: 135f 02bd f786 78bd 9cb3 b53d 0023 723d
000000a0: e76a bc3d a1e8 b63d 1359 bd3d 9656 80bd
000000b0: e099 7ebc 8d07 3dbd 80d7 f5bd d7cb 4abd
000000c0: 1535 863d e948 b6bc 5f2f 27bd 4168 eabb
000000d0: 4589 e93b 1d85 3abc 3d3d 0fbd 69aa b5bc
000000e0: 37c0 b73d 959b 48bd 1c42 a73d 8037 a93d
000000f0: b7d9 0b3d 8efd a33d 0743 bdbd d52e bd3d
00000100: 4017 87bc 0df5 d63d faa6 be3d 7282 ff39
00000110: b7f7 e33c cbfb dfbd e3cc c73d aa15 1fbe
00000120: c399 72bd 0695 503c 2651 c53d de06 8ebd
00000130: 99a9 18be f3f7 263d 2e4e 57bd 3b7b 1dbc
00000140: 3bf5 afbd 3eaa 5e3d 586d 08bd cf2a 7dbc
00000150: 00ae c13d 722a 953d 6b2a 76bd 0613 d73d
00000160: 2b3a e2bd d6e0 eabd bf9b 27bd 4811 43bd
00000170: c275 ce3d f8c9 783c bb22 4e3b baa7 8ebd
00000180: 6206 8ebd 2f61 1ebd 9bc1 403c 4cdc b33d
00000190: d9c5 d73c b31f 273d 6552 9cbc 253f 7f3d
000001a0: 96f1 b6bd ffed abbc 0201 eabc 0fa1 a8bd
000001b0: 48b8 13bd fca2 2b3d e910 843c 7898 f4bc
000001c0: 09ba d13d dd98 87bd 3800 b43d bb83 89bd
000001d0: 1472 dab8 c84d b0bd 0240 9f3d d3ba 883c
000001e0: 99c4 b63d e509 733c 1770 52bd 6a29 003d
000001f0: 82e1 b03d 97cf ab3d 7376 473d 0f8e dbbb
