checkpoint/mmi/dpe/pretrain/MMI_port_10_pad_5_res_6_range_0.03.pt (torch, 648379 bytes, 14 tensors)

freq f4 [5]
00000000: 283c 4340 634e 4340 21cf 4540 13af 4340
00000010: 553f 4340
3.0505466 3.0516593 3.0907671 3.0575607 3.0507405

phase_bias f4 [5]
00000000: ce8a 163d 9fe6 623d 38c8 833d 8dde 8e3d
00000010: 4c23 2b3d
0.03675347 0.05539572 0.06434673 0.06976042 0.04178171

layers.0.weight f4 [256, 10]
00000000: c510 473c 71c9 2b3e de79 78be 948a 68be
00000010: 1f70 f3bd c86c e23d df8b 033d 9902 883e
00000020: dfb6 0c3b 91ce e23d bb81 96bd bbfc 92bd
00000030: 9f91 a7be c163 5cbe 292b 02be c863 2c3d
00000040: cae3 243e 3227 623e 09a0 34be edbc d4bd
00000050: be3f ae3d bbf5 653e 489b a8bd d556 4a3e
00000060: ec90 c3bd ba1a e53c 73de 8e3e ea06 97be
00000070: 2106 58be 587c a1bd 132d 0ebe 6c17 a43e
00000080: b41c 05be e63d 0abe 7c86 5fbe cbd5 95be
00000090: a08e 37be e83b 7d3e 3d11 143e d6dc 1e3e
000000a0: 6546 373c 148e 09be f7a0 5c3d 506a 93be
000000b0: ebdb 61be 438c 1abe ac10 4a3e 384c 3f3e
000000c0: e111 0abe b347 1cbc e98b 603e ef8e a93e
000000d0: 1d4e 113e 5a5f 5c3d 728e 6c3e 33c3 50be
000000e0: 04b5 1f3d 0e07 81be fab9 6bbe b374 47be
000000f0: 7827 433e 76d1 0d3e 7ead 38be d526 063e
00000100: 3936 453e 8f6d 3fbd 9ec8 a33c f96e a83d
00000110: 6f52 4a3e 9201 9d3e e873 8cbe 4e65 1dbe
00000120: 06a8 d63d 9b57 6e3e 249a 803e fbab 863e
00000130: 31a5 3b3d 8715 9ebe 58f4 82bb d4f4 74be
00000140: f94a b1be b95a 873e ffc3 3b3e a3dd b2be
00000150: 3a8f 313c 9358 36bd eeda 83bd 1a87 ecbd
00000160: 772c 053e da31 36be acd3 a83d 092a c33d
00000170: 72b5 863e 6d4a 323e c914 c1be 9164 0fbe
00000180: 943f 5f3e 381b cd3d de49 8cbe ee54 0dbe
00000190: 152c 923e 1fa3 563e 6f69 27be e38e 07be
000001a0: 58f5 9ebe 6123 dabb a37d 81be 493e 73be
000001b0: f6ce a5bc 9f03 253d 9328 1dbe eb27 293e
000001c0: ad30 76be bbad 7e3e 0273 293e 2224 95be
000001d0: 7790 e5bd bfc2 4f3c 7d5a bc3c db82 793d
000001e0: 287a c23d 13b2 a1bd c2c0 19be 56fb 043e
000001f0: 2b6e acbe 1714 1fbe 83cc 51bd 56ee 16be
00000200: dd39 cfbd a9d7 77be a137 3bbd 98e3 c43d
00000210: a4c6 2dbe 22e2 7cbc 6462 533e 4ecb b6bd
00000220: 025b 45bd d7c2 b8bd 16f3 603c 3792 153e
00000230: 08f2 8b3e 0819 073e 51a8 9b3e b2ba 94bd
00000240: 0636 a3be faf6 45be 2b1e 493e 9ecb 41bd
00000250: a1e1 42be 8232 89be 95a4 a7be 05a5 8fbe
00000260: 572c a2bd 0237 343e 2dcc 273e d48c 92be
00000270: b5f0 513e e780 78be 7229 8abd 3fd9 ddbd
00000280: da16 2fbd df63 e7bd 5672 b1be d940 8bbe
00000290: 9074 8cbd 6c8a 663d 6c4d 9cbd 4020 363e
000002a0: d183 71be df61 273d db2b 843e 74ad 06be
000002b0: 1eb2 913e 181c e03d 4ce6 9fbe 9e92 343e
000002c0: 8dc3 8cbd 287d 43be 34c2 5e3e 1e33 8ebe
000002d0: d8ca 163c 2f3d a3bd 3028 583e 2c2a 903d
000002e0: 8b3b db3d 6bc5 bd3d d3a4 c2bd 5a62 8bbd
000002f0: f2de 8abe 5f0c 203e 6d24 7f3e 7711 583e
00000300: 76f2 7fbe a2b5 54bd cecc 81be 21a7 3dbe
00000310: 5dd4 51be 7bc8 ec3d 1290 3bbe 0975 29bc
00000320: 0705 813d 13e5 523e c50e 44be aba2 23be
00000330: a6db 2dbe 3044 6b3e 6cd3 9cbd 70d3 853e
00000340: ee9e f63d 8ecf 603d ed76 2dbd d823 49bd
00000350: d2ad 543c b501 e7bd 7368 ce3a f302 473d
00000360: d3b4 83be a487 19be 5236 883e 5bf6 84be
00000370: 9373 5dbd b740 aa3e 0601 a63d 9036 b4bd
00000380: 50b1 90be 7fff 133e 5ebb a0be cb5d d0bd
00000390: 769d eabd 92a2 81bd d3e6 80bc 6af8 713e
000003a0: b247 bf3c 4dcd 913e b678 3b3e ac64 58be
000003b0: c2ce 033e 0294 6dbe 35f1 28be 7dca 9e3d
000003c0: 4ba6 053e d44a 6f3e 6283 12be 309a 49bd
000003d0: 7263 343e 7fb6 a9be be02 753e fac4 6dbe
000003e0: 0639 053d c722 8ebd 2e68 6fbe b13c 153d
000003f0: 8601 843e 5745 18be d510 84be b0fd b9bd
0.012149994 0.16776063 -0.24265239 -0.22709113 -0.1188662 0.110559046 0.032115813 0.26564482
0.0021471304 0.11074556 -0.07348963 -0.07177111 -0.32728288 -0.21522428 -0.12711777 0.042087346
0.1610252 0.22085264 -0.17639174 -0.10387597 0.085082516 0.2245702 -0.082327425 0.19759686
-0.09549126 0.027966846 0.2790409 -0.29497463 -0.21096088 -0.07885045 -0.13884382 0.3204912
-0.1299923 -0.13500175 -0.21828645 -0.29264674 -0.17925501 0.24729884 0.14459701 0.1551393
0.011186217 -0.13433105 0.053864446 -0.28792048 -0.22056548 -0.15092568 0.19732922 0.18681419
-0.13483383 -0.009538579 0.21928371 0.33116862 0.14189954 0.05380187 0.23101214 -0.20386963
0.03899099 -0.25200695 -0.23020163 -0.19478111 0.19058025 0.13849434 -0.18034932 0.1310075
0.19258966 -0.046735343 0.019993123 0.08224291 0.19758008 0.3066526 -0.2743218 -0.15370676
0.10481267 0.23275606 0.251176 0.26303086 0.045811836 -0.308758 -0.003996413 -0.2392152
-0.34627512 0.26436403 0.18336485 -0.3493472 0.0108373705 -0.044518065 -0.06438242 -0.11549206
0.13005243 -0.17792454 0.08243498 0.09529502 0.26310307 0.17411204 -0.3771117 -0.14003207
0.21801597 0.10014957 -0.27400106 -0.1380193 0.28549257 0.20960663 -0.16348813 -0.132381
-0.31046557 -0.0066570495 -0.25291166 -0.23754229 -0.020240288 0.040286656 -0.15347509 0.16519134
-0.24042006 0.2487096 0.16547778 -0.2912913 -0.11209195 0.012680708 0.022992367 0.06091581
0.09495956 -0.07895293 -0.15014938 0.12986502 -0.336778 -0.15535007 -0.05122043 -0.14739355
-0.101184584 -0.24203362 -0.04570735 0.096137226 -0.16970307 -0.015434774 0.20643002 -0.08925496
-0.048182495 -0.09021538 0.013729831 0.14606558 0.27333093 0.13193142 0.30401853 -0.07262172
-0.31877154 -0.19332495 0.19640414 -0.047313325 -0.19031383 -0.26796347 -0.32742754 -0.28055587
-0.079186134 0.17599109 0.1638648 -0.28623068 0.20501979 -0.24267922 -0.06746186 -0.10832452
-0.042746402 -0.11298346 -0.34657544 -0.27197912 -0.0685817 0.056284353 -0.076319546 0.1778574
-0.2358544 0.04086482 0.2581471 -0.13152105 0.28456205 0.109428585 -0.3123039 0.17634055
-0.06873236 -0.19090712 0.2175377 -0.27773374 0.009203635 -0.07970654 0.2110908 0.07039294
0.10704716 0.0926617 -0.09504094 -0.068058684 -0.2712322 0.15629719 0.24916239 0.21100412
-0.24994835 -0.05193103 -0.25351566 -0.18520786 -0.20491166 0.11561676 -0.18316677 -0.010342845
0.06299787 0.20595197 -0.19146259 -0.15980022 -0.1697832 0.2297523 -0.07657513 0.26137877
0.12042032 0.05488544 -0.042349745 -0.04910645 0.012980895 -0.112796225 0.0015747681 0.048586797
-0.25723895 -0.14993149 0.26603943 -0.25969204 -0.0540653 0.33252499 0.08105664 -0.087994695
-0.2826028 0.14452933 -0.3139295 -0.101741396 -0.114558145 -0.06329836 -0.015735066 0.23629919
0.023349617 0.28476945 0.18307766 -0.21132153 0.1287184 -0.23200992 -0.16498263 0.07753465
0.13051717 0.23368388 -0.14307931 -0.04921931 0.1761606 -0.33147046 0.23926827 -0.23219672
0.032525085 -0.06940227 -0.23379585 0.036434833 0.25782412 -0.14870201 -0.25794092 -0.0908159

layers.0.bias f4 [256]
00000000: 546b 54be 3794 59be 97f2 663e eb44 f5bd
00000010: 3b3a 40bd 37a1 033e 6bba 4abe b5e6 fd3c
00000020: 72b0 543e dc34 d7bd 294b f63d 6665 cbbb
00000030: 294d 603e 50a2 093e aa40 b33d 6f7c 573d
00000040: 6cea 75be c4be 063e 591e 583e 8725 bdbd
00000050: ed18 a9be ffdb 903e fa8f 73bd f450 b23d
00000060: 0793 58bd 1ab9 803e e97e 923e 8142 3b3e
00000070: 1486 f5bd 2d9c 533e 0556 d53d 5c63 b4bc
00000080: 419a 76be 3d21 19be fc6c a6be 4649 3d3e
00000090: 1352 8a3e 0124 263e 4e18 683d 5dc5 7e3d
000000a0: 10d8 913e 98e9 3abe ba11 e1ba 31b2 3ebe
000000b0: ac50 2fbd 6a50 f13c 39b1 ca3d 0762 3fbe
000000c0: 0159 49bd 89a6 81be 5ca4 7cbe c2f6 2e3b
000000d0: 4352 84be dc92 b93d bd3a 8dbe 8089 5abe
000000e0: 7f2a 95bd 60ce a3be 12be 653e 6a87 623e
000000f0: 2a42 1ebe f3c3 083d b721 303e 8582 1c3e
00000100: 65ed 87bd 0827 98be 14b5 1f3e b13f 93be
00000110: af7c aebd 2852 f13c b7f1 00be bc26 e5bd
00000120: 2443 87be 1006 ca3c 5494 acbd 2907 933e
00000130: 342f a5bd 91a5 6e3e ffba 533d 718d 9fbd
00000140: d7fe 07be c7d6 6dbd 5117 743c 5ed9 8dbd
00000150: fc47 873d 345b 8a3e 1bf4 8a3d 6be2 a63d
00000160: ecac 073e 4d97 1b3d 102a 303e 7395 403e
00000170: 2e93 983e ace5 96be bd90 383e 8b7f b8bc
00000180: 1496 93bd 2c25 06be 4e11 573e ef8e 913e
00000190: a9e2 48be a1ce df3d 61f9 6c3e f96d af3d
000001a0: 47ec 20bd 6ff6 383e 762a 503c 5180 5bbd
000001b0: 5a3a 3fbd e2ea 033e d26b be3d aac9 de3c
000001c0: 6333 f03d ace0 bf3d 0611 0bbe b26b 6e3d
000001d0: 0698 543e 1b67 203d 56a0 3cbd 4690 693e
000001e0: 9b91 20be e796 06be 9c7b 0fbe 984d 883e
000001f0: dad9 92be 4bbc bbbb 13f1 98be 0463 ecbc
00000200: 82dc 0b3e f034 cbbc da3f a93e 377d d33b
00000210: 4b98 fdbd 6767 3e3d 6b14 073e 48de 4dbc
00000220: 7385 7f3e 6a26 53be 5c95 cd3d bbd2 413e
00000230: ef66 c73d 716d 533c ffed 9f3d 34f4 0ebe
00000240: c644 6fbe ffd7 863c 10ec 4dbd 1c2b 7d3e
00000250: 7213 413e 6c1e 413e 75b5 24be c25d 43be
00000260: 569e 7cbe 779c f23d fc58 7cbe 8d0a 87be
00000270: 1881 99bd 7842 7ebe cc04 b7bd eb1e 10be
00000280: e6b3 c6bd b4eb 913e 4bcf a5bd 58e2 483e
00000290: 8dcc 9e3b 8a7d 7abd 9629 e1bd fb73 10be
000002a0: 6ac8 53be 5e91 493e 63ab a1bd 51ce 9bbe
000002b0: b5aa 863e effb eeb9 d37b 00be 13c3 49be
000002c0: 1b0b 84be e1ad 8fbe 4977 9f3e 8ba8 4e3e
000002d0: 5b19 a03b 1caa 8dbe 50f3 c4bd c1f8 98be
000002e0: 32b2 b23d 167b cbbd a45c bdbd 8d91 bebc
000002f0: 67ec 2f3e 1c2f 203e 28f6 c43d c287 4abd
00000300: 3b7d babd 11f7 80bb 732a 75be 816d 813e
00000310: f557 93bd 99a9 133e a2c6 3dbe 6847 39bd
00000320: c61b e03d f37e 84be 63e4 043e ab4e 92be
00000330: aeac 563d fb82 8fbd e2df 583e ccc7 9e3e
00000340: 6e1a 8b3d e57b 28bd 3493 26be 203e 193e
00000350: b38f 19be d68c ec3d 8389 b4bd a3be 7c3e
00000360: ccd8 713e 7b65 0d3e cc44 263c 8901 393e
00000370: 22c1 69be 9e49 733e 4b66 9ebd 0dd5 a63d
00000380: 1cdb 2abd 6d3f e0bd 17aa babd 88a8 4f3e
00000390: 6f43 51bd 51a5 18bd 36ab 083e 1afc 5e3d
000003a0: fde5 8bbe d22c 9dbe 2269 34be fdfc 7f3e
000003b0: 017e 73be 4cb3 f63d 9e64 7a3e 1c0b a0bd
000003c0: 8bc9 dabd c093 02be 3717 be3d 221a 55bd
000003d0: 0601 013d bca7 193e f28a 9a3d 39cf d0bd
000003e0: f409 2c3d f1f3 1e3d 21ed f6bc c27e bc3d
000003f0: e71f abbd 3812 8e3e e05f 1dbd 5101 b0bc
-0.20744067 -0.21247946 0.22553478 -0.11976036 -0.046930533 0.12854467 -0.19797675 0.030993799
0.20770434 -0.10508129 0.120260544 -0.006207156 0.21904434 0.13440824 0.08752568 0.052608903
-0.24015206 0.13158709 0.21105327 -0.092356734 -0.3302683 0.28292844 -0.05946348 0.08706847
-0.05287459 0.2514122 0.2861245 0.18287088 -0.11988464 0.20665045 0.104167975 -0.022020034
-0.2408228 -0.14954086 -0.32505023 0.18484983 0.27015743 0.16224672 0.056663804 0.06219994
0.28485155 -0.18253171 -0.0017171421 -0.18622662 -0.042801544 0.02945729 0.09897084 -0.18689738
-0.049157146 -0.2532237 -0.24672073 0.0026697372 -0.2584401 0.09061214 -0.27583876 -0.21341515
-0.07283496 -0.3199339 0.22435787 0.22121969 -0.15454927 0.033389997 0.17200361 0.15284164
-0.06637076 -0.29717278 0.1559642 -0.2875953 -0.08519875 0.02945812 -0.12592207 -0.111890286
-0.26418412 0.024661094 -0.08426729 0.287164 -0.08065644 0.23305346 0.051692005 -0.0779065
-0.13280807 -0.058066156 0.014898137 -0.06926225 0.06605527 0.27022707 0.06784841 0.081486546
0.13249558 0.03798609 0.17203546 0.1880701 0.2979979 -0.294721 0.18023963 -0.022521755
-0.072063595 -0.13100117 0.21002695 0.28429362 -0.19617714 0.10928083 0.23142006 0.085658975
-0.03928783 0.18062757 0.012705436 -0.05358917 -0.046686508 0.1288257 0.09297909 0.02719577
0.11728551 0.09369025 -0.13580713 0.058208175 0.20761117 0.03916083 -0.046051346 0.22808942
-0.15680544 -0.13143502 -0.14011997 0.266217 -0.28681833 -0.0057292334 -0.29871425 -0.028855808
0.13658336 -0.024805516 0.33056527 0.0064541358 -0.12382563 0.04648533 0.13191383 -0.012565203
0.2495325 -0.20620123 0.10038254 0.18928044 0.0973643 0.012904511 0.07809066 -0.13960344
-0.23366079 0.016460417 -0.050273955 0.24723476 0.18855074 0.18859261 -0.16084845 -0.19078735
-0.24669775 0.118462496 -0.2464332 -0.26375237 -0.07495326 -0.24830043 -0.08936462 -0.14074294
-0.09702282 0.2850014 -0.080961786 0.19617593 0.0048461617 -0.06115488 -0.1099426 -0.14106743
-0.2068192 0.1968436 -0.078940175 -0.30430844 0.26302114 -0.00045582603 -0.12547235 -0.19703321
-0.25789723 -0.28062347 0.31145695 0.20181482 0.004885835 -0.27668846 -0.09616721 -0.29877284
0.08725394 -0.09935586 -0.092461854 -0.023262763 0.17180024 0.15642971 0.09617263 -0.049445875
-0.09105917 -0.0039357026 -0.23941974 0.25278857 -0.07194511 0.14420165 -0.18532804 -0.045234114
0.10942797 -0.25878105 0.12977748 -0.28575644 0.052410774 -0.070074044 0.21179155 0.31011808
0.067921504 -0.04113378 -0.16267091 0.14965105 -0.14996223 0.115503 -0.08815291 0.24682097
0.23617858 0.13808243 0.010148238 0.18066992 -0.2282758 0.23758551 -0.077343546 0.08146105
-0.041712865 -0.109495975 -0.09114473 0.20279133 -0.0510897 -0.037267033 0.13346562 0.05443964
-0.27323905 -0.30698258 -0.1761823 0.24998851 -0.23778535 0.12045917 0.24452445 -0.07814619
-0.106829725 -0.12751675 0.09281772 -0.052026875 0.031495117 0.15005392 0.07546033 -0.101957746
0.04200168 0.03880686 -0.030142369 0.09203865 -0.08355694 0.27748275 -0.03842151 -0.021485003

layers.2.weight f4 [256, 256]
00000000: 02d1 c7bd 627f 9dbd 6a7b 3d3c 6e5b 42bc
00000010: 5bde 6ebd e90e a23b 04a9 e2bc fe3d c53c
00000020: 8cb6 be3d 7e03 3ebd 52c3 cf3b 3095 e4bb
00000030: 84a6 af3c f022 59bc 3f96 8cbb 6cc4 b93b
00000040: 1c4a fe3b 0b41 8e3d 1896 6b3d 97f1 0d3c
00000050: 662e 54bd 35c8 553d b16c 86bb 916d 46bc
00000060: a9d8 3dbc a91d 9d3d a3e0 1cbd d043 73bb
00000070: 9c24 58bc af04 05ba 847d 13bd 6171 563d
00000080: 8b08 02bd b9be 60bd dccc aabd dd6a 333d
00000090: 3286 ebbc 60a4 f1bb d878 4f3a ebd8 a0bb
000000a0: 0f29 0a3d dc1a 1abd 6b1a cf3a 966a 003d
000000b0: b5b7 4cbc df10 163d 278d 513a 8a41 18bd
000000c0: b058 9d3b 38d4 59bd 0f51 7c39 b1d0 e6bc
000000d0: 9bf2 6dbd 2765 d6bb ec5c 84bd e4d7 86bd
000000e0: cb49 b4bd 05c5 dabc a836 b5bc 5b01 42bd
000000f0: a4a1 993b 68f6 8dbc fe54 e63d 9bc6 7ebd
00000100: 9082 973c 0095 15bc 698e 023d d4e2 d1bc
00000110: 37cd 12ba 111f 853d f933 d1bc 03cc 233c
00000120: 246f c3bb 679f b8bc d314 d23c 5fcd 623d
00000130: 7eeb a5bb 9927 3e3d 2049 053c f37a 373c
00000140: 9650 43bc d25d 74bd 57bf 443d fe9b ac3c
00000150: bdd7 783d ab6e 6f3d b4ef fd3c 14a6 2c3d
00000160: d59c 883c 0143 ec3b fda0 0cbc bd01 17bd
00000170: 21b2 563c 618f bebd c8b4 2c3c 0fc7 96bd
00000180: 33eb d33c 1474 52bd c947 473d f748 823d
00000190: 1efa a0bd 9046 813d 9185 99bc 3524 8a3b
000001a0: 4f30 4a3d aa46 2cbc c5eb 4e3d d54f 08bd
000001b0: 7c7f 9ebc d32f 79bb 082b a9bc 06d2 663d
000001c0: 2897 233d d132 d13c d171 d5bb ce7b 29bd
000001d0: 9050 d93d 3bbc 34ba 02f5 2bbd 0048 22bd
000001e0: 553b 243d faee 063c 4f68 423c 1f4f d23c
000001f0: 304c 71bd eac1 133d bd1f dabc 324c 943b
00000200: 6a78 c43c 4e52 1bbd 07a9 803d a3a4 d23c
00000210: 0cf5 28bd e16a 9c3c b934 38b8 2e8d b3bb
00000220: c252 433d 23a6 83bd 7324 813d 81a2 383d
00000230: 9968 9c3b efb7 f9bc 7deb 50bc 5abd 51bd
00000240: 23e6 b73c 5df7 4abd 74dd cfbc 2f0f 3bbd
00000250: 9a42 2b3d 7097 5f3d 454b 633c b9cd 86bc
00000260: a3fd 283c d1bb 003d 318d 3f3c 3dbc a0bb
00000270: 1c6e 8bbd 6efd abbc 3bed 08bc 1981 4ebd
00000280: 2577 ea3c 0096 a33c 1747 c83a 2c0e 3a3d
00000290: eab5 603d 3953 b63c 1a17 d5bc e5e3 b8bd
000002a0: aebc 8bbd 5e92 083d 8926 92bb 3074 aebd
000002b0: 3f15 2f3d 8e0c 5d3d aaa5 993c ca70 cdbc
000002c0: 4282 123c e324 9bbd 87df 453d 468b 16bd
000002d0: 580b 743d 1791 9bbd 5ee2 21bd 4881 e6bd
000002e0: e6f1 fdbc 87e8 64bc e555 d5bc b43d 7d3c
000002f0: fe26 563d 5c57 31bd bd6c 033d 1531 ab3b
00000300: 00f1 7c3d bf58 d0ba 75a1 15bc bd53 8b3c
00000310: b8ab 3abd 1349 2d3d 04f1 d9bd 9d02 4c3d
00000320: 8a26 883d 6257 72bc d89b 7b3c 84a5 1c3d
00000330: 3bbd 903c 416b 823c 4ceb 3d3d d6da 3ebc
00000340: 5c40 923d 772b 3ebd 83c8 193d f3ad 73bc
00000350: a23a 9cbc c77c 02bd 86ad d53c ca8c 8738
00000360: a80b 353d d273 46ba 6758 42bd 1b4d 163e
00000370: 2d2a 53bd 739b 06bd 4ecf 3f3c 8961 5ebd
00000380: d9a1 5ebd 1726 c4bc 6382 b1bc 0f1c 39bc
00000390: f36e 10bd e595 a1bc 10db 123d 83db cd3c
000003a0: d0ea 94bd dd2e aabd 1d6a 53bd b541 e43c
000003b0: 7e74 f0bc e1b2 333d cf0d 893d ea6d 943c
000003c0: ad6c 3cbb 90a3 f83c 195e 7ebc 0c9f 953b
000003d0: 2b5f 633d 18f0 02bc 0907 a13c 7c1c 56bd
000003e0: 9958 51bd f7bd 583d d628 9e3d f01e d1bc
000003f0: 61c2 c13b 1f46 0c3d 38ed e0ba 67f4 8e3d
-0.09756662 -0.07690312 0.011565069 -0.011862619 -0.058317523 0.004945625 -0.027668484 0.024077412
0.09312162 -0.04639005 0.0063404227 -0.0069757923 0.021441706 -0.013252959 -0.0042903717 0.0056691673
0.0077602994 0.06946 0.057516187 0.008663557 -0.05180206 0.052192885 -0.0041023125 -0.012111084
-0.0115873 0.07671673 -0.038300168 -0.0037119277 -0.013192322 -0.0005074245 -0.036008373 0.05235422
-0.03174643 -0.054869387 -0.08339855 0.043803085 -0.028750513 -0.0073743314 0.00079144305 -0.004908671
0.033730563 -0.03762327 0.001580072 0.03135165 -0.012494971 0.036637183 0.00079937506 -0.037171878
0.004801832 -0.053180903 0.0002406279 -0.028175684 -0.058092695 -0.00654282 -0.06463036 -0.065841466
-0.088031374 -0.026705274 -0.022120789 -0.047364574 0.0046884585 -0.01732941 0.1124668 -0.062201124
0.018494874 -0.009129763 0.031874094 -0.025620855 -0.00056000374 0.06500066 -0.025537478 0.009997371
-0.0059641767 -0.022536946 0.025644695 0.05537164 -0.0050634732 0.046424482 0.00813511 0.011198747
-0.011921069 -0.059659787 0.04803404 0.021070477 0.06075262 0.05845515 0.030998088 0.042150572
0.016676346 0.007210136 -0.0085833045 -0.036866892 0.013103993 -0.09304691 0.0105411485 -0.07362186
0.025868988 -0.051380232 0.048652444 0.06361573 -0.07860206 0.06312287 -0.018740447 0.004215742
0.049362477 -0.0105148945 0.050517816 -0.03327926 -0.019347899 -0.003802289 -0.020650402 0.056352638
0.039939076 0.025536926 -0.006513812 -0.041377835 0.10611069 -0.00068945036 -0.041981705 -0.039619446
0.040095646 0.008235687 0.011865689 0.025672494 -0.05891055 0.036073603 -0.026626462 0.0045256848
0.0239832 -0.03792029 0.062822394 0.02571327 -0.04124932 0.019093933 -4.391812e-05 -0.0054794764
0.047686346 -0.064281724 0.0630578 0.04507685 0.004773211 -0.030483214 -0.012751457 -0.05120597
0.022448605 -0.04955231 -0.025374152 -0.045668777 0.041811563 0.05458778 0.013872926 -0.016455518
0.010314378 0.031429116 0.0116913775 -0.0049052523 -0.06808111 -0.020994868 -0.008357341 -0.050416086
0.028621266 0.019968987 0.0015279975 0.04542367 0.054860987 0.02225648 -0.026011992 -0.090278424
-0.06823097 0.03334271 -0.00446016 -0.08518255 0.04274487 0.05396705 0.018755753 -0.025078196
0.008942189 -0.07575395 0.048308875 -0.036753915 0.05958113 -0.07596033 -0.03952252 -0.11255127
-0.030999135 -0.013971454 -0.026041934 0.015456606 0.05228328 -0.043296203 0.032086123 0.005224357
0.061753273 -0.0015895589 -0.009132733 0.017007703 -0.04557392 0.042306017 -0.10641673 0.04980718
0.06647976 -0.0147913415 0.01535698 0.038243786 0.017668357 0.015920283 0.046366975 -0.011648854
0.07141182 -0.04642817 0.03754474 -0.014873016 -0.019070927 -0.03185728 0.026083719 6.463526e-05
0.04420057 -0.0007570359 -0.04744759 0.14677851 -0.051553894 -0.03286309 0.01170714 -0.054292236
-0.05435357 -0.023943944 -0.021668619 -0.011298194 -0.03526206 -0.019724796 0.035853446 0.025129085
-0.072713494 -0.0830972 -0.05161487 0.027863363 -0.029352423 0.043871764 0.06692087 0.018118817
-0.00287513 0.03035143 -0.015525364 0.004566079 0.05551068 -0.007991813 0.019656675 -0.05227326
-0.051109884 0.05291554 0.077226326 -0.025527447 0.0059130643 0.03424656 -0.001716054 0.0698021

layers.2.bias f4 [256]
00000000: 7739 cf3a f7f4 033c b297 433c 9d10 02bd
00000010: f28f a93d a7e7 7d3d ca41 96bc bde4 2cbd
00000020: 6403 6bbd 5a63 283d 8814 673d 4475 04bd
00000030: 9dfe 81bd e6cd ffbb 4f1c 323b 1d81 7d3d
00000040: 66cd 53bb 0ba6 adbd b878 1e3d e4c8 633d
00000050: 7f23 583b 86e1 703d 596c 383c c3f2 aabc
00000060: 436b e7bc b4a1 9a3d 4d94 a63b 520f 583d
00000070: 98c6 85bc e2a3 04bd 673e e63c 8620 f1bb
00000080: 9fd5 e8bc a24e d6bc bfd8 4e3d d8b4 e5bc
00000090: 4693 a0bd 54ac c53c 66e7 b03d 76c8 ae3d
000000a0: 21fd 4c3b 34d0 3b3d e34e f53b ad8c 0b3d
000000b0: fc24 d43c 3615 9bbc 585a c93c a4ac 03bd
000000c0: 7ee7 603d 26ab adbd d916 a13d d1e1 adbc
000000d0: 3a9d 69bd b98b fdbb 0d4f 05bd 5a02 fcbc
000000e0: 87ed 1fbd 0ef4 6d3c c128 21bd d88b ac3c
000000f0: 9730 c1bc 97e4 533d 3e96 583c 00f2 423d
00000100: 7bd7 95bd 6bfa 843d 3c21 cebc 0c9c 36bd
00000110: 7bf4 823c 6cec 1e3d 181b 05bc 880b 80bd
00000120: 994e 00bd d4c0 6dbc 6aeb 903d 7fe4 23bd
00000130: 8967 6fbd a967 2fbc c301 973d 8cbb 3bbd
00000140: 3d0b b83b d8bb 033d 5c5f e7bc 0db4 66bd
00000150: 8707 373d 8dc0 233d f7d2 a63c fae3 10bd
00000160: 0a2a 643d c6af 67bd 0593 94bc 4366 703d
00000170: 273e c2bc f85c 863c 992b a83c 72f5 48bd
00000180: 64cb b1b8 c3b1 debd 937e 3a3d 5168 c7bb
00000190: d5c9 343c c442 03bd 3209 913d 9084 883d
000001a0: dfc0 93ba e225 68bd dbb3 593c 148f 253d
000001b0: d2c5 0ebc 6a69 393d b031 a3bc 6c1c 76bb
000001c0: e75e b93d 9bb9 c8bc dc14 acbc 7889 6fbd
000001d0: 8b4f 3f3b c8cb 853c 9d7a 163d cfe6 3bbc
000001e0: e462 08bd ec16 08bc 58ee dabc 986a 7d3c
000001f0: 7c4e b63c ef21 62bc be1c e3ba 50a8 033c
00000200: 919a 55bd d629 09bd e70f 72bd 0281 723a
00000210: 4b6d debc a4e4 ccbc 46e1 9f3d 4e71 253d
00000220: b20a 533b 166f 58bd 08cb 0abd ff8b a33d
00000230: 1127 f23c 3d2e 1dbc ba68 6b3c eee9 0cbd
00000240: 2718 64bd 7afa f3bb 33ec a5bb 904f ed3b
00000250: 5924 47bd 8acb e0bc 947b 58bc 218e 373d
00000260: b393 8cbd b150 a6bc 59a6 4d3d cab9 473d
00000270: a576 89bc 3463 0c3c 37f7 37bd cae7 8c38
00000280: 4faf 783d 7f48 7d3d 8c45 143d a364 7c3c
00000290: f195 84bc b196 883d 4ff3 263d 10a0 fb3b
000002a0: 0063 98bd 2de2 1bbd 69b7 f23c 2d06 e3bc
000002b0: 6e05 25bd 8371 67bd 12c2 e2bc fad8 3fbd
000002c0: 6950 b7bb 06f7 ccbb 0ec2 afbd 6b84 09bd
000002d0: 5441 34bd 44e0 223d 4a86 253b 777b 28bd
000002e0: 464c 1fbd 0293 48bd 56c5 a1bd d559 e93c
000002f0: 93d4 233d fe9a 3fbd 684f 453c 0ed6 d43c
00000300: fc24 6dbc 194d 1cbc f0e0 c83c 1b4c 8b3c
00000310: 1d18 993d 3daa e93b 0aa1 573d b840 afbb
00000320: 80dc 84bd f5c8 d7bc 7603 2d3d 0619 22bd
00000330: 9fab 1d3d 2820 173d 6546 afbc e8bb e13c
00000340: 5eb9 123c 9d1d c6bc a6c8 7f3c 8720 243d
00000350: 2ed6 503d c8c9 633d 7f34 b63d e4a3 e93b
00000360: c927 bc3c ed53 57bd 897c f43b 1a45 283b
00000370: 7348 133d 89ea 873c bd5f a93d c030 bb3c
00000380: 10b8 0cbd 4f72 ddbc 08b7 923d bbb7 643d
00000390: c92c 08bd b92d 5d3d d079 74bd aa5a bfba
000003a0: fa3f 633c 91eb e93c 6eab eebc 24da 1b3d
000003b0: f890 983c 6a5c 093d 65bc 3cbc f83b a2bc
000003c0: 900b b63d bf07 34bd d4c8 4fbd a55e 49bd
000003d0: 9b92 013d 8516 8e3d 4529 afbc 280f 513d
000003e0: d8bc 023d 6d78 1b3d e16b a7bc ad29 55bd
000003f0: 9e95 f6bb c80d 62bd 95f7 a8bc 8a7d a73c
0.0015809973 0.00805401 0.011938022 -0.031754125 0.082794085 0.0619885 -0.018341918 -0.04221033
-0.05737628 0.041110374 0.056416065 -0.032338396 -0.06347392 -0.0078065274 0.0027177518 0.06189071
-0.0032318472 -0.08478936 0.038689345 0.055611506 0.0032980142 0.058808826 0.011256301 -0.020867711
-0.028249389 0.07550374 0.005083597 0.052748986 -0.016330048 -0.032382853 0.028105928 -0.0073586134
-0.028422175 -0.026160542 0.050499674 -0.028040335 -0.0784059 0.024130024 0.08637886 0.08534329
0.0031278806 0.045852855 0.0074862107 0.034069706 0.025896542 -0.018931013 0.024579212 -0.032147065
0.05490827 -0.084799096 0.07865686 -0.021225842 -0.05703471 -0.0077376035 -0.03254609 -0.03076284
-0.039044883 0.014523519 -0.039345507 0.021062776 -0.02358274 0.051731672 0.013219414 0.04759407
-0.0731649 0.06493076 -0.025162332 -0.04458241 0.015985718 0.03879969 -0.008124135 -0.062521994
-0.031324957 -0.014511306 0.07076152 -0.040012833 -0.05844835 -0.010705867 0.07373383 -0.045833156
0.005616574 0.032161564 -0.028243713 -0.056324054 0.044684913 0.039978553 0.020364268 -0.035373665
0.055704154 -0.056564115 -0.01813651 0.058691274 -0.023711277 0.016401753 0.020528601 -0.0490622
-8.477902e-05 -0.10873749 0.045530867 -0.0060854335 0.011034449 -0.032046095 0.07081832 0.06665909
-0.001127269 -0.056676753 0.01328751 0.040419653 -0.008714156 0.045266546 -0.019921154 -0.0037553562
0.09051304 -0.024502566 -0.02100604 -0.05848071 0.0029191698 0.016332522 0.036738027 -0.011468603
-0.033297434 -0.008306246 -0.02672498 0.015467308 0.022254221 -0.013802036 -0.0017327291 0.008035734
-0.05214936 -0.033487163 -0.059097197 0.0009250791 -0.027151724 -0.025011368 0.078066394 0.04039126
0.003220242 -0.052840315 -0.033885032 0.079856865 0.029559644 -0.009593544 0.0143682305 -0.03440278
-0.055687096 -0.0074456306 -0.0050635575 0.0072421506 -0.04861865 -0.027440805 -0.013213057 0.04481328
-0.06864109 -0.020302149 0.05020747 0.048761167 -0.016780207 0.008568574 -0.044913497 6.718894e-05
0.060714062 0.061836716 0.036199138 0.015404853 -0.016184779 0.06669367 0.04075938 0.007678993
-0.07440758 -0.038057495 0.029628472 -0.027712906 -0.04028838 -0.056504738 -0.02768043 -0.046837784
-0.0055943024 -0.0062550334 -0.08581935 -0.03357355 -0.044007614 0.039764658 0.0025257044 -0.04113337
-0.0388911 -0.048968323 -0.07898967 0.028485218 0.03999765 -0.04677867 0.012042858 0.025980975
-0.01447415 -0.009539866 0.024521321 0.017004063 0.07475302 0.0071308897 0.052643813 -0.0053482912
-0.064873695 -0.026340941 0.04223963 -0.039574645 0.03849375 0.0368959 -0.021395871 0.027555421
0.008955328 -0.024184043 0.015611803 0.040070083 0.050985508 0.055612355 0.088967316 0.007130133
0.02296819 -0.052570272 0.007461135 0.0025675953 0.035957765 0.016591327 0.08270214 0.022850394
-0.034355223 -0.027032046 0.07163817 0.05583928 -0.033245835 0.053998683 -0.059686482 -0.0014599164
0.013870234 0.02855471 -0.029134478 0.038049832 0.018623814 0.0335354 -0.011519526 -0.019803986
0.08888924 -0.0439527 -0.050728634 -0.049162526 0.031633954 0.06937889 -0.021381984 0.051039845
0.031918377 0.037956644 -0.020437183 -0.0520417 -0.00752516 -0.055188924 -0.020625869 0.020445604

layers.4.weight f4 [128, 256]
00000000: ee87 363d f68d aabd bbc4 11bd 5c9c 7cbd
00000010: 380f cabc de13 d3bb 3042 19bd 7cce 0e3d
00000020: 448d aebc 2e39 33bd 4fc6 7bbd 448f 063d
00000030: 9707 0bbc d505 233d 26dc 62bb 4be1 a63d
00000040: be71 87bd b338 a23d a3f2 ee3c 2273 9cbd
00000050: eafd 833d 1e4a 2dbd 9c84 0ebc e4f5 29bd
00000060: 7a8b 7cbc 9bf2 0d3d 10c5 c1bc 1a06 5c3d
00000070: 22f9 b53b c94a fabc 1f4a 7e3d 8709 ec3c
00000080: 112e b4bc 1bfd 11bd 0610 93bc 9bc7 d23b
00000090: 63ea 123c 8f1b d13a 8c10 3cbd 5ea4 6ebd
000000a0: 53c9 87bd 6a89 fdbc 8ffb 99bd 5b8e 3ebb
000000b0: e1e7 ce3b dd33 cabd ccd0 223c bd27 a03d
000000c0: 9f12 1e3e 84ad afbc afb7 0f3a 575b adbd
000000d0: 2b51 513d 7b8a 90bd 8567 463d 3294 acbb
000000e0: 8605 90bd 6190 2b3c c101 a13d 83cc 74bd
000000f0: 03bc f93b b9a8 ef3c b940 b93b 15c8 203c
00000100: 5071 9bb9 51c9 403d 8954 e1ba d37c acbd
00000110: 6c48 60bd 0bcf bebb ddac 41bd 716d 8dbb
00000120: f6d4 a2bd 4756 923c d740 8b3c 1ff9 97bd
00000130: 2b14 febc b3a5 1fbd 7fb6 71bd 4962 29bd
00000140: edf3 48bd 9725 a4bc 5f02 02bd abfb 67bd
00000150: 4c84 24bd 726a b83c ed53 87bb 54b2 cbbc
00000160: 65de f6bd 15a6 99bd 7c0e 183d 465a 77bd
00000170: a9b1 113d 27f4 673c f5bd 0dbc 8df5 0d3d
00000180: 00a9 2e3d 7b69 3f3c c07e ae3c fe44 ff3c
00000190: 50a3 93bd 66cc e3bd 56d9 47bd d5fb 30bd
000001a0: 236f 4a3c d08c cf3c ace8 783c 1970 553d
000001b0: eec0 183d ae4d 5e3c d697 c83c 090e 763d
000001c0: 2934 1b3c cb07 a1bd ebac 58bc 5b0f 33bc
000001d0: 8d9f 18bd 3d67 ae3d f8b9 553d 83bd 89bd
000001e0: 7bee 81bd e1be f1bb c48e 1abe 775e 8539
000001f0: 3fd9 a03d b711 1a3d 2edf 4d3d 7e58 883d
00000200: 88c5 5dbd c787 4cbd 4b90 093d 9483 2cbc
00000210: 18a0 6bbd 3537 3f3c 2cd9 063e 91a3 143e
00000220: c13b f3bb 8e57 71bd cf84 6f3d bbd6 153d
00000230: 3242 a8bd dbf3 61bb 75e4 d7bc 3d5e 59bc
00000240: 7393 8abd 69dc 543d decc aabd e585 2dbd
00000250: 5993 b83d da0d 243b 40ac d5bb fd0f 7abc
00000260: 03e1 7f3d f5c8 fc3c ab7e a8bc 471c 93bd
00000270: 3bb3 f6bb ea09 f13c 6db7 f03b ed20 c93d
00000280: 34c8 d3bb bdf9 683d 7024 11bd 1d7e b93c
00000290: f3b7 853b 7389 1e3d ad2e a2bc a47b 22bd
000002a0: 10d7 863d 9191 543c 6b05 833d cb82 dd3c
000002b0: 9351 6abc 067c 053c 836f 5bbd 9dd4 88bd
000002c0: e34b 6bbd 084f c4bb 898d 62bd 7674 4cbd
000002d0: f025 69bd 923a a83d 19ac 7cbd 8a6c 8a3d
000002e0: 7134 c3bd 2253 bfbd b8de 02bb 641b 893d
000002f0: f975 1a3d 3d39 963c 93f2 93bd 59a6 a2bc
00000300: 4837 4dbb 4760 f53b c2f4 07bd aa2f 873c
00000310: 5a62 7bbb 4acf 2b3d f646 4f3d 3f81 4dbd
00000320: 6591 053b 02dd 1d3a 6691 14bc 8ed7 28bc
00000330: d5db 123c cbcf 08bd 7058 d8bd 24ce e1bc
00000340: bbcb c33c 2884 333d 7330 25bb 4dc3 0bbe
00000350: 6d39 e43c 5f78 54bd 9f25 0bbd a47c 1cbd
00000360: b510 4f3d cc7b a2bd 4b7a 3b3d 41a4 90bd
00000370: c486 63bd 08dc a4bd 56df bdbd 1e70 63bd
00000380: 3f1c 573c 7d29 72bd 3c96 323d 4af2 363d
00000390: 54a0 9a3b 2b59 afbc 297f 873d e000 953c
000003a0: 7889 a3bd 8be7 e6bd 6ddd bfbc 4a0c c53d
000003b0: 26a1 73bd eaeb 003d 5012 91bd 0cd0 adbd
000003c0: 3d9e 48bd 2684 21bd 0f37 98bd f93b c1bd
000003d0: da6d 6b3b 03eb 7abd ad01 7cbd 7d6f b83c
000003e0: f927 603d 857b 29bd 115b 8dbd 9d53 0f3d
000003f0: 97db 163b 3d81 12bd 38a8 a03c 38f5 193d
0.044563226 -0.08327858 -0.035588007 -0.061672553 -0.02466546 -0.0064415773 -0.037416637 0.034864888
-0.021307595 -0.043755703 -0.06146842 0.032851472 -0.008485696 0.039800484 -0.0034616082 0.0814844
-0.066134915 0.07920971 0.029168433 -0.07639147 0.06444915 -0.04230701 -0.008698609 -0.041494265
-0.015414113 0.034655195 -0.023653537 0.053716756 0.0055533806 -0.030553238 0.062082406 0.028813137
-0.021994622 -0.03564177 -0.017951977 0.006432486 0.008967015 0.0015953648 -0.045914218 -0.05826222
-0.066301964 -0.030949313 -0.07518684 -0.002907655 0.006314263 -0.098731734 0.009937476 0.078200795
0.15436791 -0.021445043 0.0005482388 -0.08464687 0.0511028 -0.07057663 0.048438568 -0.0052666897
-0.070323035 0.010471434 0.07861663 -0.05976535 0.0076212897 0.029255258 0.0056534675 0.009813328
-0.00029648328 0.04706699 -0.0017191331 -0.08422246 -0.054756567 -0.0058230213 -0.047283996 -0.004316025
-0.07950775 0.017863406 0.016998691 -0.07420563 -0.031015476 -0.038976382 -0.059011932 -0.041353498
-0.04906075 -0.020037455 -0.031740543 -0.056636494 -0.04016523 0.022511695 -0.004129878 -0.024865307
-0.12054137 -0.07502381 0.03712319 -0.060388826 0.03556982 0.014157332 -0.008651246 0.034658004
0.04264164 0.011682863 0.021300673 0.031160828 -0.07208884 -0.1112297 -0.048791252 -0.043208916
0.012355599 0.0253357 0.015192192 0.052108858 0.037293367 0.013568325 0.024486464 0.06007198
0.009472885 -0.078628145 -0.013224821 -0.010928954 -0.037261534 0.08515785 0.052179307 -0.067255996
-0.06344315 -0.007377491 -0.15093523 0.0002543812 0.078539364 0.03761455 0.05026167 0.066575035
-0.05414346 -0.049934175 0.033584874 -0.010529418 -0.057525724 0.011670877 0.13168782 0.1451552
-0.0074228947 -0.05892139 0.058476266 0.036581736 -0.08215751 -0.0034477625 -0.026354054 -0.013267097
-0.06766405 0.051968012 -0.083398566 -0.04236402 0.09012479 0.002503267 -0.006520778 -0.015262601
0.062470447 0.030857543 -0.020568212 -0.07183128 -0.00752869 0.029423673 0.007346085 0.09820733
-0.006463075 0.056878794 -0.03543514 0.022643143 0.0040807663 0.0387053 -0.019797647 -0.039668694
0.06583989 0.012974159 0.06397518 0.027039906 -0.014301675 0.008147245 -0.053573143 -0.06681178
-0.057445418 -0.0059908666 -0.05531076 -0.049915753 -0.056920946 0.082142964 -0.061687563 0.067589834
-0.09531487 -0.09342028 -0.0019969177 0.066946775 0.037710164 0.01833784 -0.07224002 -0.019854711
-0.0031313468 0.007488284 -0.033192404 0.01650222 -0.0038358183 0.041945733 0.050604783 -0.050172087
0.0020380851 0.00060220074 -0.009067869 -0.0103052985 0.008963545 -0.03340129 -0.10563743 -0.027564116
0.023900857 0.043827206 -0.002520588 -0.1364872 0.027859414 -0.051872607 -0.033971425 -0.038204804
0.050553042 -0.07933769 0.045770925 -0.07062579 -0.055548444 -0.0804978 -0.092711136 -0.055526845
0.013129293 -0.059121598 0.043600306 0.04466466 0.0047188196 -0.021404823 0.06616051 0.018188894
-0.079852045 -0.11274632 -0.023421014 0.096214846 -0.059479855 0.031474985 -0.07083571 -0.084869474
-0.048979033 -0.039432667 -0.074323766 -0.09435267 0.003592363 -0.06125928 -0.061525036 0.0225141
0.05472562 -0.041377563 -0.06902135 0.03499185 0.002301907 -0.035767782 0.019611463 0.037587374

layers.4.bias f4 [128]
00000000: 79a1 4dba 49d9 ee3c addc e3bb 28ef 94bb
00000010: 35db 013d b432 3bbd af8e c9bc 6c30 1bbd
00000020: 4ebb 113d 9dfe a93d 4530 d2bc 57e2 2ebc
00000030: 2bb4 4fbd 49cd c8bc 2504 9fbd fb19 8b3c
00000040: 4cb7 1fbd dcf2 b13d 2d5b 82bc 4e69 ff3b
00000050: 2b5d de3c 65a5 c3bc d3f7 5dbc 5ab4 e23c
00000060: 58a2 bf3c b31c d2bd 4e1b e83c 241d 6f3c
00000070: 3ca7 a33d a0e1 b53c bd96 a93c bb50 b03d
00000080: 5f82 713d 9ca1 a93c 2e6c cfbc ccdb 8fbc
00000090: 069c 1b3d 65a0 853d f1ad 5d3d b2e4 943d
000000a0: e28c b23d 4b3d 74bc 5fde 583c 9f60 dbbb
000000b0: b3dd d73d ff06 a03c 430e 103d a72d 89bc
000000c0: 4b2f 973c e355 8c3c 2335 f8bb 4956 77bd
000000d0: 5eae 903d bbf8 863d 1b42 503d d135 653c
000000e0: 5550 ccbc 792a 843c e533 a13d adc0 f73c
000000f0: 6c48 b53d 73a9 1dbd bbe2 3c3c 3ffc b43c
00000100: 311e ad3a d757 3f3d b5d6 ba3d 5096 ac3c
00000110: c435 7ebd e0c2 b53d 7d49 343d 119b 7d3d
00000120: ade5 653d 4c63 ecbc 04aa 58bd 55fd 883d
00000130: 7c9b 8b3d 5650 c03d 0825 14bd 303b 6f3a
00000140: 3a4b c4bc e03a 94bc ebac f53c cf15 e2bc
00000150: 3ef4 64bd 253b d83d e32f 0cbc a8cd 8ebd
00000160: c7ce 89bd 2762 e83c 7eb8 7ebd f478 60bc
00000170: fae6 85bc aa3e c43c 6495 7b3d 59e8 d2bc
00000180: e4b3 14bd 8dcb b8bc 55b0 033d 5e59 4b3c
00000190: ca93 9a3d a63b a13d 4584 523c 8a7d 253d
000001a0: 44f9 153d 20ed a83d ff0d 4f3c 9992 8f3d
000001b0: bba7 59bb 60d7 20bd b37f d3bc 6f5d 2abd
000001c0: 72ca 533c ddfa 0d3d b55d 983d a612 753d
000001d0: 83b3 603d 54e2 18bd 80a0 513c 7584 15bd
000001e0: c960 d7bc 86f7 cb3b 53d2 b93c d38b 2dbd
000001f0: d568 fdbb f604 133d 4fd8 133d 531c b13d
-0.00078441907 0.029156344 -0.006953797 -0.004545111 0.031703193 -0.04570265 -0.02460417 -0.037887976
0.03557902 0.08300517 -0.025657782 -0.010674081 -0.05070893 -0.02451195 -0.077644624 0.016980162
-0.038993165 0.086889 -0.015912617 0.0077945357 0.027144035 -0.023882577 -0.013547855 0.027673889
0.023392841 -0.1025938 0.028333332 0.01459435 0.07990882 0.022202313 0.02070176 0.08609148
0.058962222 0.020706944 -0.025320139 -0.017560862 0.037990592 0.065247335 0.05412096 0.07270183
0.087182775 -0.0149071915 0.013236611 -0.0066948677 0.10540333 0.019534586 0.03516985 -0.016745402
0.018455168 0.017130798 -0.0075746938 -0.060385022 0.07064508 0.0659041 0.050844293 0.013989882
-0.024940649 0.016133534 0.07871226 0.030243242 0.08851704 -0.038491677 0.011528666 0.022092937
0.001320785 0.04671463 0.09122983 0.021067768 -0.062062994 0.0887506 0.044015396 0.06191546
0.05612724 -0.028855942 -0.052896515 0.06688944 0.06816766 0.09390323 -0.03616813 0.0009125946
-0.023961652 -0.01809448 0.02998968 -0.02759829 -0.05589699 0.10558156 -0.008556339 -0.069728196
-0.06728893 0.028367115 -0.062187664 -0.0137007125 -0.01634549 0.023955662 0.061421767 -0.025745558
-0.03630437 -0.022557998 0.032150585 0.0124114435 0.0754772 0.07872705 0.012848918 0.040402927
0.03661467 0.08248353 0.012637614 0.07010383 -0.0033211547 -0.039267898 -0.025817728 -0.04159301
0.012926685 0.03466307 0.07439748 0.059832238 0.054858696 -0.03732522 0.012794614 -0.036503274
-0.026291268 0.0062245755 0.022683298 -0.042369675 -0.007733444 0.035893403 0.03609496 0.086479805

layers.6.weight f4 [128, 128]
00000000: 4353 cd3d ba79 7e3d f8e7 8fbd 45b0 1c3d
00000010: ffe0 9dbc 9c29 d8bd f674 81bd 4066 553e
00000020: 6ea1 55bd 4be2 85bd 93dd c1bd d9d6 a6bd
00000030: ff6a 8d3c 4d3d 0b3d 9941 13be 5700 d2bd
00000040: 7601 0fbc 62d7 8fbd 82a0 6c3c 62bd 28bd
00000050: a90c a33c bb5f 903c 36e6 d6bd 6cbc 13bd
00000060: 6d87 6dbd d846 c4bc c159 b2bd 3450 e5bd
00000070: 7851 98bd 37a0 3fbd c646 09be bc2d 77bd
00000080: 4faa 1b3d 6dec d53c 0d88 613c 1ae2 36bc
00000090: cf59 aa3b 51c3 31bd 7ffb 81bd 0386 24bd
000000a0: f3a4 adbc 4209 1d3d 1dac 0bbc 272d 803d
000000b0: 687a 383d d209 43bd a1c8 09be 7870 8dbd
000000c0: 92c1 363e 595c d03c 2267 52bd aba1 8ebc
000000d0: 5653 333d 67d3 a23d 4fb3 b5bd b259 1a3d
000000e0: 297d 96bd 1e54 87bd 8605 3ebd 66f9 07be
000000f0: 9749 b7bd 1d7f d1bc ef4a 1cbd 2b8c c2bd
00000100: f714 6e3d 0bb5 1dbd acd1 c2bd ceec 593d
00000110: b062 a33c 1e34 86bd b9be 24bc ef52 5abd
00000120: 6587 6b3e 291d b63d 7c2c aa3d bfea 9fbd
00000130: 169c 8abc 7625 893d ebd9 173b 5c06 52bd
00000140: a6d2 12bd ca4b f6bc 63f7 3cbd 9155 38bc
00000150: cd2a 95bd f22d b5bc de66 babd 6cad 6dbb
00000160: 80c2 643c d8f1 babd 68b5 153d 73b2 013e
00000170: acc5 bb3b 0538 773d ef60 5c3d 9b1b 6abc
00000180: f43e 1a3e 06b0 483b ec04 c63d 4911 23bc
00000190: 3140 e4bd b654 b8bc 4658 1e3d bee4 b4bc
000001a0: f8c3 46bb 3500 f33d 8d9b 79bd 5827 e43d
000001b0: e804 02be 10ae 663d badd 53bc ad61 f03d
000001c0: db1b b4bc df56 b8bd db8b 17bd 8889 08be
000001d0: 4287 b4bd f6d8 893c e696 10be 617c ecbd
000001e0: aa5d 2fbe b5df 8fbd be3d 153c 6b61 043d
000001f0: 320a 0a3d 7bb3 833d 6728 dbbb 6946 af3d
00000200: cfb5 acbd 3fa0 d03d 6306 073d fa8a a1bd
00000210: 4cbf 26bd 2244 103e 68ab 263d c437 8d3d
00000220: 39d0 973d 322d 7f3a 5347 d03b 34e5 7abc
00000230: 9e06 c4bc 4afd 6e3d 7003 a3bd 603a b93d
00000240: 6a4e dbbd 7405 8c3d 6f16 b3bd 3b20 cdbd
00000250: ed4b ae3d b353 073d f762 fabd 4321 483d
00000260: 28c2 e93c b98b 173d 147c 88bd 930f 75bd
00000270: 37b5 223d 6455 d1bd 4715 2dbd d05c ee3d
00000280: ddd5 ad3d 2ceb 7e3d 1a5d 8fbd 6109 bc3d
00000290: 7112 ff3c b9d1 08bd c73a e4bd a6c7 693d
000002a0: 3d3d 5b3d 29f8 c7bd 2e5a d4bd 52ff 693d
000002b0: 6c4e 22bd 0deb d0bd 251d 9fbd 375f 5d3d
000002c0: e807 0b3d f4a8 c63d 4642 e03d 1c41 e73d
000002d0: 193c bcbd 0869 a4bd 9cfb 4bbd 4746 273e
000002e0: 770a 1fbd a59d 913c 509e c23d 7ac6 3abd
000002f0: 803e fd3b a534 243d 9127 80bd f951 46bd
00000300: b626 07bd caf2 ccbc 795a 943d 519d c2bd
00000310: 2f6b cebd 78fa 053c 9cd9 f3bb d6bc 3cbd
00000320: a899 083c 5649 283d bdb6 4f3a 9db2 21bd
00000330: 1e71 223d d218 db3c 5c7d a3bc bc13 893d
00000340: d230 cc3c f9aa 163e f6aa 01be eb18 84bd
00000350: d895 6cbc 2bf4 cc3d 73a5 3d3d 3372 603c
00000360: 2b19 553d 20fb f4bc a2d7 5b3d 0b75 b33d
00000370: 639c babd 63f5 1bbd bb65 53bd 05f7 08be
00000380: ea32 a53c 3c08 4ebd 70ec 023e 8448 8e3c
00000390: bb78 843d 6a47 d03b 45b3 97bd e708 293e
000003a0: e2cd a7bd a903 883c ef02 aa3d eafd 3ebd
000003b0: adf4 1a3e d77f abbd 9e18 f5bd 94a5 0bbe
000003c0: b576 02bb e225 21bd b4a6 703d 8e87 3bbe
000003d0: a50c 873d e132 06be 9402 d3bd 1493 883c
000003e0: 56df 733b dc69 1b3d c791 bdbc dbbe 103d
000003f0: 9722 eeba c5a2 a1bc b028 163c e90e 6fbd
0.100256465 0.062127806 -0.070266664 0.03825404 -0.019272326 -0.10554811 -0.06321137 0.20839787
-0.052155904 -0.065373026 -0.0946609 -0.08146448 0.017262934 0.033994008 -0.14380492 -0.10253971
-0.008728376 -0.07023503 0.014442565 -0.041196235 0.019903498 0.017623773 -0.10493128 -0.036068365
-0.05799048 -0.023959562 -0.087085254 -0.11196938 -0.07437414 -0.046783652 -0.13405904 -0.06034635
0.038004216 0.026113713 0.013765347 -0.011162305 0.0051986943 -0.04339916 -0.06346797 -0.040166866
-0.021196818 0.038338907 -0.008524922 0.06258612 0.04503861 -0.047616787 -0.1345544 -0.06906217
0.17847279 0.02543466 -0.051367886 -0.017411074 0.043780647 0.07950478 -0.08872091 0.037683196
-0.07348091 -0.06607841 -0.046391986 -0.13278732 -0.08949583 -0.025573308 -0.0381574 -0.09499391
0.058125462 -0.038502734 -0.09512648 0.05320435 0.019944519 -0.06552909 -0.010055237 -0.053301748
0.23000868 0.088922806 0.08309266 -0.07808446 -0.01692013 0.06696598 0.002317066 -0.051275596
-0.03584542 -0.030065436 -0.046134364 -0.011250869 -0.07283554 -0.022116635 -0.091016516 -0.0036266698
0.013962388 -0.09128159 0.036549956 0.12665729 0.0057303514 0.06035616 0.05380338 -0.014288808
0.15063077 0.0030622496 0.096689075 -0.009952852 -0.11145056 -0.02250133 0.038658403 -0.022081729
-0.0030329209 0.11865274 -0.06093936 0.11140317 -0.12697184 0.056318343 -0.012931282 0.1173738
-0.021985939 -0.09000944 -0.03699861 -0.13333714 -0.08814861 0.016827088 -0.14120063 -0.11547161
-0.17125574 -0.070250906 0.009108959 0.032319468 0.03370113 0.064307176 -0.006688166 0.085583515
-0.08433115 0.101868145 0.032965075 -0.07887836 -0.04070978 0.1408849 0.04069081 0.06895402
0.07412762 0.00097342127 0.0063561588 -0.015313435 -0.023928937 0.058347024 -0.0795964 0.09044337
-0.10708316 0.068369776 -0.08744513 -0.10015913 0.085105754 0.033038806 -0.12225907 0.048859846
0.028534964 0.036998484 -0.06664291 -0.059829306 0.0397236 -0.10221365 -0.04225662 0.11638796
0.08488057 0.062235996 -0.070001796 0.091814764 0.031136723 -0.033403132 -0.111440234 0.057075165
0.0535252 -0.0976413 -0.10368763 0.057128258 -0.03962557 -0.102010824 -0.07769231 0.054045882
0.033943087 0.09700194 0.10950141 0.112917155 -0.0919115 -0.080278456 -0.0498005 0.16335402
-0.03882834 0.017775366 0.09502852 -0.04559944 0.007728398 0.04008927 -0.06257547 -0.04841802
-0.032995902 -0.025018115 0.07243819 -0.09502662 -0.100790374 0.008177392 -0.0074417125 -0.046078525
0.008337416 0.041085564 0.00079236535 -0.03947698 0.03965866 0.026745234 -0.019957237 0.06693217
0.024925623 0.14713658 -0.12662873 -0.06450065 -0.014440022 0.10007509 0.046300363 0.013699102
0.052025955 -0.029904902 0.05367244 0.087625585 -0.0911186 -0.038075816 -0.05161069 -0.1337548
0.02016588 -0.05030082 0.12785506 0.017368563 0.0646834 0.0063561695 -0.0740724 0.16507302
-0.08193566 0.016603308 0.08301341 -0.04662887 0.15132399 -0.08373993 -0.11967586 -0.13637382
-0.001990718 -0.03934277 0.05875273 -0.18313429 0.06594209 -0.13105346 -0.10303226 0.016671695
0.0037211976 0.037942752 -0.023140801 0.035338264 -0.0018168268 -0.019730935 0.009164974 -0.05836383

layers.6.bias f4 [128]
00000000: 30a1 a73d 431e d03d bd15 0f3d 3e90 aa3c
00000010: 1a03 ce3d c8b5 d63d 75e8 af3c ed45 b23d
00000020: 6ab4 5f3c 1d58 b93d a07d f9bc a697 e73c
00000030: eb06 c33d 5788 f63c 2eed cc3c 41fb e5bc
00000040: 8546 0d3d 3f10 93bd 29ac 6dbd 726a 2abd
00000050: c914 9f3d 745f ebbb aab4 7e3d be27 32bc
00000060: 6c85 623c d466 b23d 5292 923d e576 87bd
00000070: 3a48 883d c148 bc3d 594e e13d fab4 9a3d
00000080: 7fb3 573d faeb cc3d 0503 b7bc 6714 18bd
00000090: 368c 0abd 1a06 3dbd 2574 983d 692b 353d
000000a0: f1dc ab3d ed65 b2bc 2219 853c 9f1e 09bd
000000b0: 3cf1 ea3d 4ada 96bc 6770 623d 842a 2cbd
000000c0: 6c5f 7a3d c838 8e3d b862 903d c83f b53c
000000d0: feda ebbc 0df5 9c3d d960 5a3d 700f 823c
000000e0: e0b4 2e3d e3fe 42bc 2e6c 4f3d bd5a 103e
000000f0: d413 cb3a 74ae 163d c168 8cbc 1529 bd3c
00000100: c8c3 b13d 594f fbbc f5ce 8f3d 4950 c6bc
00000110: 5b14 80bd 0a67 8e3b f6a6 963c ae87 a83d
00000120: 758a 773d 3115 513d fcd0 cf3d 8815 ab3d
00000130: 2943 063d 74cb 64bb 1c5d 31bd 29ba 4b3d
00000140: 4dc8 a13c 3b87 03bd c312 c13d bbb5 bfbc
00000150: 7145 183e efa6 823d 2d1b 053b a784 003c
00000160: 20be 00b9 13bf 453d 4e02 933d e0f8 c53d
00000170: 9afd 14ba a9b5 75bd fe09 bc3d b88e f23d
00000180: c422 23bd ceea 073c 978e 993d 5d84 d23c
00000190: 003e 1dbd 1e58 62bd 375f 863d c558 113d
000001a0: d855 64bd 28d3 583d af9c 683d 1e69 e03b
000001b0: 521a 34bc 08de 11bd 786b db3d 27d3 c73d
000001c0: 3787 96bc c295 91bb 7bd2 2c3d 2fc7 3a3d
000001d0: df55 643d 7af2 efbc accc 563d 86bb 87bc
000001e0: 6710 d9bc 88d4 10bd 8807 3f3d 4b97 44bd
000001f0: 6795 283c 4924 e43d 58ed 043d 786d 8bbc
0.08185041 0.10162022 0.03493284 0.020820733 0.10059185 0.10483891 0.021473149 0.087047435
0.013653854 0.090500094 -0.03045541 0.028270554 0.09522804 0.030094309 0.02501544 -0.028073909
0.03449108 -0.07180833 -0.058025513 -0.04160542 0.07767636 -0.0071830098 0.062184013 -0.010873733
0.013825756 0.08711019 0.07156815 -0.06614474 0.06654401 0.09193564 0.11001272 0.0755405
0.052661415 0.100059465 -0.022340307 -0.037128832 -0.03382512 -0.046148397 0.07444028 0.044230852
0.083917506 -0.021777118 0.016247336 -0.03347647 0.11471793 -0.018414635 0.055282976 -0.042032734
0.061126158 0.06944424 0.07050079 0.02212514 -0.028790947 0.07663927 0.053315017 0.015876502
0.042652965 -0.01190159 0.050640278 0.14097114 0.001549358 0.036787465 -0.017139794 0.023090879
0.086799204 -0.030677484 0.07021896 -0.024208205 -0.062538825 0.0043457793 0.01839016 0.08229004
0.060434777 0.0510456 0.101472825 0.08353716 0.032778893 -0.0034911307 -0.043301687 0.049738083
0.019748831 -0.032111388 0.09427407 -0.023402086 0.1487024 0.06379496 0.0020310387 0.007844127
-0.00012277858 0.048277926 0.07178174 0.0966661 -0.00056835415 -0.059987698 0.09181593 0.11843628
-0.039828077 0.008295728 0.074979 0.025697881 -0.038389206 -0.055259816 0.065611295 0.035485048
-0.05574593 0.05293575 0.05679005 0.0068484684 -0.010992603 -0.035612136 0.107138574 0.09757071
-0.018375022 -0.0044429014 0.042192917 0.045600113 0.055745956 -0.029290427 0.052441284 -0.01656891
-0.026497079 -0.035358936 0.04663804 -0.047995847 0.010289527 0.11139733 0.03245291 -0.017019972
